<?xml version="1.0"?>
<net name="Model from PaddlePaddle." version="11">
	<layers>
		<layer id="0" name="x" type="Parameter" version="opset1">
			<data shape="?,3,?,?" element_type="f32" />
			<rt_info>
				<attribute name="old_api_map_element_type" version="0" value="f16" />
			</rt_info>
			<output>
				<port id="0" precision="FP32" names="x">
					<dim>-1</dim>
					<dim>3</dim>
					<dim>-1</dim>
					<dim>-1</dim>
				</port>
			</output>
		</layer>
		<layer id="1" name="conv2d_0.w_0_compressed" type="Const" version="opset1">
			<data element_type="f16" shape="64, 3, 3, 3" offset="0" size="3456" />
			<output>
				<port id="0" precision="FP16" names="conv2d_0.w_0">
					<dim>64</dim>
					<dim>3</dim>
					<dim>3</dim>
					<dim>3</dim>
				</port>
			</output>
		</layer>
		<layer id="2" name="conv2d_0.w_0" type="Convert" version="opset1">
			<data destination_type="f32" />
			<rt_info>
				<attribute name="decompression" version="0" />
			</rt_info>
			<input>
				<port id="0" precision="FP16">
					<dim>64</dim>
					<dim>3</dim>
					<dim>3</dim>
					<dim>3</dim>
				</port>
			</input>
			<output>
				<port id="1" precision="FP32">
					<dim>64</dim>
					<dim>3</dim>
					<dim>3</dim>
					<dim>3</dim>
				</port>
			</output>
		</layer>
		<layer id="3" name="p2o.Conv.0/WithoutBiases" type="Convolution" version="opset1">
			<data strides="1, 1" dilations="1, 1" pads_begin="1, 1" pads_end="1, 1" auto_pad="explicit" />
			<input>
				<port id="0" precision="FP32">
					<dim>-1</dim>
					<dim>3</dim>
					<dim>-1</dim>
					<dim>-1</dim>
				</port>
				<port id="1" precision="FP32">
					<dim>64</dim>
					<dim>3</dim>
					<dim>3</dim>
					<dim>3</dim>
				</port>
			</input>
			<output>
				<port id="2" precision="FP32">
					<dim>-1</dim>
					<dim>64</dim>
					<dim>-1</dim>
					<dim>-1</dim>
				</port>
			</output>
		</layer>
		<layer id="4" name="Reshape_43158_compressed" type="Const" version="opset1">
			<data element_type="f16" shape="1, 64, 1, 1" offset="3456" size="128" />
			<output>
				<port id="0" precision="FP16">
					<dim>1</dim>
					<dim>64</dim>
					<dim>1</dim>
					<dim>1</dim>
				</port>
			</output>
		</layer>
		<layer id="5" name="Reshape_43158" type="Convert" version="opset1">
			<data destination_type="f32" />
			<rt_info>
				<attribute name="decompression" version="0" />
			</rt_info>
			<input>
				<port id="0" precision="FP16">
					<dim>1</dim>
					<dim>64</dim>
					<dim>1</dim>
					<dim>1</dim>
				</port>
			</input>
			<output>
				<port id="1" precision="FP32">
					<dim>1</dim>
					<dim>64</dim>
					<dim>1</dim>
					<dim>1</dim>
				</port>
			</output>
		</layer>
		<layer id="6" name="p2o.Conv.0" type="Add" version="opset1">
			<data auto_broadcast="numpy" />
			<input>
				<port id="0" precision="FP32">
					<dim>-1</dim>
					<dim>64</dim>
					<dim>-1</dim>
					<dim>-1</dim>
				</port>
				<port id="1" precision="FP32">
					<dim>1</dim>
					<dim>64</dim>
					<dim>1</dim>
					<dim>1</dim>
				</port>
			</input>
			<output>
				<port id="2" precision="FP32" names="conv2d_0.tmp_0">
					<dim>-1</dim>
					<dim>64</dim>
					<dim>-1</dim>
					<dim>-1</dim>
				</port>
			</output>
		</layer>
		<layer id="7" name="conv2d_1.w_0_compressed" type="Const" version="opset1">
			<data element_type="f16" shape="32, 64, 3, 3" offset="3584" size="36864" />
			<output>
				<port id="0" precision="FP16" names="conv2d_1.w_0">
					<dim>32</dim>
					<dim>64</dim>
					<dim>3</dim>
					<dim>3</dim>
				</port>
			</output>
		</layer>
		<layer id="8" name="conv2d_1.w_0" type="Convert" version="opset1">
			<data destination_type="f32" />
			<rt_info>
				<attribute name="decompression" version="0" />
			</rt_info>
			<input>
				<port id="0" precision="FP16">
					<dim>32</dim>
					<dim>64</dim>
					<dim>3</dim>
					<dim>3</dim>
				</port>
			</input>
			<output>
				<port id="1" precision="FP32">
					<dim>32</dim>
					<dim>64</dim>
					<dim>3</dim>
					<dim>3</dim>
				</port>
			</output>
		</layer>
		<layer id="9" name="p2o.Conv.1/WithoutBiases" type="Convolution" version="opset1">
			<data strides="1, 1" dilations="1, 1" pads_begin="1, 1" pads_end="1, 1" auto_pad="explicit" />
			<input>
				<port id="0" precision="FP32">
					<dim>-1</dim>
					<dim>64</dim>
					<dim>-1</dim>
					<dim>-1</dim>
				</port>
				<port id="1" precision="FP32">
					<dim>32</dim>
					<dim>64</dim>
					<dim>3</dim>
					<dim>3</dim>
				</port>
			</input>
			<output>
				<port id="2" precision="FP32">
					<dim>-1</dim>
					<dim>32</dim>
					<dim>-1</dim>
					<dim>-1</dim>
				</port>
			</output>
		</layer>
		<layer id="10" name="Reshape_43174_compressed" type="Const" version="opset1">
			<data element_type="f16" shape="1, 32, 1, 1" offset="40448" size="64" />
			<output>
				<port id="0" precision="FP16">
					<dim>1</dim>
					<dim>32</dim>
					<dim>1</dim>
					<dim>1</dim>
				</port>
			</output>
		</layer>
		<layer id="11" name="Reshape_43174" type="Convert" version="opset1">
			<data destination_type="f32" />
			<rt_info>
				<attribute name="decompression" version="0" />
			</rt_info>
			<input>
				<port id="0" precision="FP16">
					<dim>1</dim>
					<dim>32</dim>
					<dim>1</dim>
					<dim>1</dim>
				</port>
			</input>
			<output>
				<port id="1" precision="FP32">
					<dim>1</dim>
					<dim>32</dim>
					<dim>1</dim>
					<dim>1</dim>
				</port>
			</output>
		</layer>
		<layer id="12" name="p2o.Conv.1" type="Add" version="opset1">
			<data auto_broadcast="numpy" />
			<input>
				<port id="0" precision="FP32">
					<dim>-1</dim>
					<dim>32</dim>
					<dim>-1</dim>
					<dim>-1</dim>
				</port>
				<port id="1" precision="FP32">
					<dim>1</dim>
					<dim>32</dim>
					<dim>1</dim>
					<dim>1</dim>
				</port>
			</input>
			<output>
				<port id="2" precision="FP32" names="conv2d_1.tmp_0">
					<dim>-1</dim>
					<dim>32</dim>
					<dim>-1</dim>
					<dim>-1</dim>
				</port>
			</output>
		</layer>
		<layer id="13" name="Constant_43178_compressed" type="Const" version="opset1">
			<data element_type="f16" shape="1" offset="40512" size="2" />
			<output>
				<port id="0" precision="FP16">
					<dim>1</dim>
				</port>
			</output>
		</layer>
		<layer id="14" name="Constant_43178" type="Convert" version="opset1">
			<data destination_type="f32" />
			<rt_info>
				<attribute name="decompression" version="0" />
			</rt_info>
			<input>
				<port id="0" precision="FP16">
					<dim>1</dim>
				</port>
			</input>
			<output>
				<port id="1" precision="FP32">
					<dim>1</dim>
				</port>
			</output>
		</layer>
		<layer id="15" name="p2o.LeakyRelu.0" type="PReLU" version="opset1">
			<input>
				<port id="0" precision="FP32">
					<dim>-1</dim>
					<dim>32</dim>
					<dim>-1</dim>
					<dim>-1</dim>
				</port>
				<port id="1" precision="FP32">
					<dim>1</dim>
				</port>
			</input>
			<output>
				<port id="2" precision="FP32" names="leaky_relu_0.tmp_0">
					<dim>-1</dim>
					<dim>32</dim>
					<dim>-1</dim>
					<dim>-1</dim>
				</port>
			</output>
		</layer>
		<layer id="16" name="p2o.Concat.0" type="Concat" version="opset1">
			<data axis="1" />
			<input>
				<port id="0" precision="FP32">
					<dim>-1</dim>
					<dim>64</dim>
					<dim>-1</dim>
					<dim>-1</dim>
				</port>
				<port id="1" precision="FP32">
					<dim>-1</dim>
					<dim>32</dim>
					<dim>-1</dim>
					<dim>-1</dim>
				</port>
			</input>
			<output>
				<port id="2" precision="FP32" names="p2o.Concat.1">
					<dim>-1</dim>
					<dim>96</dim>
					<dim>-1</dim>
					<dim>-1</dim>
				</port>
			</output>
		</layer>
		<layer id="17" name="conv2d_2.w_0_compressed" type="Const" version="opset1">
			<data element_type="f16" shape="32, 96, 3, 3" offset="40514" size="55296" />
			<output>
				<port id="0" precision="FP16" names="conv2d_2.w_0">
					<dim>32</dim>
					<dim>96</dim>
					<dim>3</dim>
					<dim>3</dim>
				</port>
			</output>
		</layer>
		<layer id="18" name="conv2d_2.w_0" type="Convert" version="opset1">
			<data destination_type="f32" />
			<rt_info>
				<attribute name="decompression" version="0" />
			</rt_info>
			<input>
				<port id="0" precision="FP16">
					<dim>32</dim>
					<dim>96</dim>
					<dim>3</dim>
					<dim>3</dim>
				</port>
			</input>
			<output>
				<port id="1" precision="FP32">
					<dim>32</dim>
					<dim>96</dim>
					<dim>3</dim>
					<dim>3</dim>
				</port>
			</output>
		</layer>
		<layer id="19" name="p2o.Conv.2/WithoutBiases" type="Convolution" version="opset1">
			<data strides="1, 1" dilations="1, 1" pads_begin="1, 1" pads_end="1, 1" auto_pad="explicit" />
			<input>
				<port id="0" precision="FP32">
					<dim>-1</dim>
					<dim>96</dim>
					<dim>-1</dim>
					<dim>-1</dim>
				</port>
				<port id="1" precision="FP32">
					<dim>32</dim>
					<dim>96</dim>
					<dim>3</dim>
					<dim>3</dim>
				</port>
			</input>
			<output>
				<port id="2" precision="FP32">
					<dim>-1</dim>
					<dim>32</dim>
					<dim>-1</dim>
					<dim>-1</dim>
				</port>
			</output>
		</layer>
		<layer id="20" name="Reshape_43193_compressed" type="Const" version="opset1">
			<data element_type="f16" shape="1, 32, 1, 1" offset="95810" size="64" />
			<output>
				<port id="0" precision="FP16">
					<dim>1</dim>
					<dim>32</dim>
					<dim>1</dim>
					<dim>1</dim>
				</port>
			</output>
		</layer>
		<layer id="21" name="Reshape_43193" type="Convert" version="opset1">
			<data destination_type="f32" />
			<rt_info>
				<attribute name="decompression" version="0" />
			</rt_info>
			<input>
				<port id="0" precision="FP16">
					<dim>1</dim>
					<dim>32</dim>
					<dim>1</dim>
					<dim>1</dim>
				</port>
			</input>
			<output>
				<port id="1" precision="FP32">
					<dim>1</dim>
					<dim>32</dim>
					<dim>1</dim>
					<dim>1</dim>
				</port>
			</output>
		</layer>
		<layer id="22" name="p2o.Conv.2" type="Add" version="opset1">
			<data auto_broadcast="numpy" />
			<input>
				<port id="0" precision="FP32">
					<dim>-1</dim>
					<dim>32</dim>
					<dim>-1</dim>
					<dim>-1</dim>
				</port>
				<port id="1" precision="FP32">
					<dim>1</dim>
					<dim>32</dim>
					<dim>1</dim>
					<dim>1</dim>
				</port>
			</input>
			<output>
				<port id="2" precision="FP32" names="conv2d_2.tmp_0">
					<dim>-1</dim>
					<dim>32</dim>
					<dim>-1</dim>
					<dim>-1</dim>
				</port>
			</output>
		</layer>
		<layer id="23" name="Constant_43197_compressed" type="Const" version="opset1">
			<data element_type="f16" shape="1" offset="40512" size="2" />
			<output>
				<port id="0" precision="FP16">
					<dim>1</dim>
				</port>
			</output>
		</layer>
		<layer id="24" name="Constant_43197" type="Convert" version="opset1">
			<data destination_type="f32" />
			<rt_info>
				<attribute name="decompression" version="0" />
			</rt_info>
			<input>
				<port id="0" precision="FP16">
					<dim>1</dim>
				</port>
			</input>
			<output>
				<port id="1" precision="FP32">
					<dim>1</dim>
				</port>
			</output>
		</layer>
		<layer id="25" name="p2o.LeakyRelu.1" type="PReLU" version="opset1">
			<input>
				<port id="0" precision="FP32">
					<dim>-1</dim>
					<dim>32</dim>
					<dim>-1</dim>
					<dim>-1</dim>
				</port>
				<port id="1" precision="FP32">
					<dim>1</dim>
				</port>
			</input>
			<output>
				<port id="2" precision="FP32" names="leaky_relu_1.tmp_0">
					<dim>-1</dim>
					<dim>32</dim>
					<dim>-1</dim>
					<dim>-1</dim>
				</port>
			</output>
		</layer>
		<layer id="26" name="p2o.Concat.2" type="Concat" version="opset1">
			<data axis="1" />
			<input>
				<port id="0" precision="FP32">
					<dim>-1</dim>
					<dim>64</dim>
					<dim>-1</dim>
					<dim>-1</dim>
				</port>
				<port id="1" precision="FP32">
					<dim>-1</dim>
					<dim>32</dim>
					<dim>-1</dim>
					<dim>-1</dim>
				</port>
				<port id="2" precision="FP32">
					<dim>-1</dim>
					<dim>32</dim>
					<dim>-1</dim>
					<dim>-1</dim>
				</port>
			</input>
			<output>
				<port id="3" precision="FP32" names="p2o.Concat.3">
					<dim>-1</dim>
					<dim>128</dim>
					<dim>-1</dim>
					<dim>-1</dim>
				</port>
			</output>
		</layer>
		<layer id="27" name="conv2d_3.w_0_compressed" type="Const" version="opset1">
			<data element_type="f16" shape="32, 128, 3, 3" offset="95874" size="73728" />
			<output>
				<port id="0" precision="FP16" names="conv2d_3.w_0">
					<dim>32</dim>
					<dim>128</dim>
					<dim>3</dim>
					<dim>3</dim>
				</port>
			</output>
		</layer>
		<layer id="28" name="conv2d_3.w_0" type="Convert" version="opset1">
			<data destination_type="f32" />
			<rt_info>
				<attribute name="decompression" version="0" />
			</rt_info>
			<input>
				<port id="0" precision="FP16">
					<dim>32</dim>
					<dim>128</dim>
					<dim>3</dim>
					<dim>3</dim>
				</port>
			</input>
			<output>
				<port id="1" precision="FP32">
					<dim>32</dim>
					<dim>128</dim>
					<dim>3</dim>
					<dim>3</dim>
				</port>
			</output>
		</layer>
		<layer id="29" name="p2o.Conv.3/WithoutBiases" type="Convolution" version="opset1">
			<data strides="1, 1" dilations="1, 1" pads_begin="1, 1" pads_end="1, 1" auto_pad="explicit" />
			<input>
				<port id="0" precision="FP32">
					<dim>-1</dim>
					<dim>128</dim>
					<dim>-1</dim>
					<dim>-1</dim>
				</port>
				<port id="1" precision="FP32">
					<dim>32</dim>
					<dim>128</dim>
					<dim>3</dim>
					<dim>3</dim>
				</port>
			</input>
			<output>
				<port id="2" precision="FP32">
					<dim>-1</dim>
					<dim>32</dim>
					<dim>-1</dim>
					<dim>-1</dim>
				</port>
			</output>
		</layer>
		<layer id="30" name="Reshape_43212_compressed" type="Const" version="opset1">
			<data element_type="f16" shape="1, 32, 1, 1" offset="169602" size="64" />
			<output>
				<port id="0" precision="FP16">
					<dim>1</dim>
					<dim>32</dim>
					<dim>1</dim>
					<dim>1</dim>
				</port>
			</output>
		</layer>
		<layer id="31" name="Reshape_43212" type="Convert" version="opset1">
			<data destination_type="f32" />
			<rt_info>
				<attribute name="decompression" version="0" />
			</rt_info>
			<input>
				<port id="0" precision="FP16">
					<dim>1</dim>
					<dim>32</dim>
					<dim>1</dim>
					<dim>1</dim>
				</port>
			</input>
			<output>
				<port id="1" precision="FP32">
					<dim>1</dim>
					<dim>32</dim>
					<dim>1</dim>
					<dim>1</dim>
				</port>
			</output>
		</layer>
		<layer id="32" name="p2o.Conv.3" type="Add" version="opset1">
			<data auto_broadcast="numpy" />
			<input>
				<port id="0" precision="FP32">
					<dim>-1</dim>
					<dim>32</dim>
					<dim>-1</dim>
					<dim>-1</dim>
				</port>
				<port id="1" precision="FP32">
					<dim>1</dim>
					<dim>32</dim>
					<dim>1</dim>
					<dim>1</dim>
				</port>
			</input>
			<output>
				<port id="2" precision="FP32" names="conv2d_3.tmp_0">
					<dim>-1</dim>
					<dim>32</dim>
					<dim>-1</dim>
					<dim>-1</dim>
				</port>
			</output>
		</layer>
		<layer id="33" name="Constant_43216_compressed" type="Const" version="opset1">
			<data element_type="f16" shape="1" offset="40512" size="2" />
			<output>
				<port id="0" precision="FP16">
					<dim>1</dim>
				</port>
			</output>
		</layer>
		<layer id="34" name="Constant_43216" type="Convert" version="opset1">
			<data destination_type="f32" />
			<rt_info>
				<attribute name="decompression" version="0" />
			</rt_info>
			<input>
				<port id="0" precision="FP16">
					<dim>1</dim>
				</port>
			</input>
			<output>
				<port id="1" precision="FP32">
					<dim>1</dim>
				</port>
			</output>
		</layer>
		<layer id="35" name="p2o.LeakyRelu.2" type="PReLU" version="opset1">
			<input>
				<port id="0" precision="FP32">
					<dim>-1</dim>
					<dim>32</dim>
					<dim>-1</dim>
					<dim>-1</dim>
				</port>
				<port id="1" precision="FP32">
					<dim>1</dim>
				</port>
			</input>
			<output>
				<port id="2" precision="FP32" names="leaky_relu_2.tmp_0">
					<dim>-1</dim>
					<dim>32</dim>
					<dim>-1</dim>
					<dim>-1</dim>
				</port>
			</output>
		</layer>
		<layer id="36" name="p2o.Concat.4" type="Concat" version="opset1">
			<data axis="1" />
			<input>
				<port id="0" precision="FP32">
					<dim>-1</dim>
					<dim>64</dim>
					<dim>-1</dim>
					<dim>-1</dim>
				</port>
				<port id="1" precision="FP32">
					<dim>-1</dim>
					<dim>32</dim>
					<dim>-1</dim>
					<dim>-1</dim>
				</port>
				<port id="2" precision="FP32">
					<dim>-1</dim>
					<dim>32</dim>
					<dim>-1</dim>
					<dim>-1</dim>
				</port>
				<port id="3" precision="FP32">
					<dim>-1</dim>
					<dim>32</dim>
					<dim>-1</dim>
					<dim>-1</dim>
				</port>
			</input>
			<output>
				<port id="4" precision="FP32" names="p2o.Concat.5">
					<dim>-1</dim>
					<dim>160</dim>
					<dim>-1</dim>
					<dim>-1</dim>
				</port>
			</output>
		</layer>
		<layer id="37" name="conv2d_4.w_0_compressed" type="Const" version="opset1">
			<data element_type="f16" shape="32, 160, 3, 3" offset="169666" size="92160" />
			<output>
				<port id="0" precision="FP16" names="conv2d_4.w_0">
					<dim>32</dim>
					<dim>160</dim>
					<dim>3</dim>
					<dim>3</dim>
				</port>
			</output>
		</layer>
		<layer id="38" name="conv2d_4.w_0" type="Convert" version="opset1">
			<data destination_type="f32" />
			<rt_info>
				<attribute name="decompression" version="0" />
			</rt_info>
			<input>
				<port id="0" precision="FP16">
					<dim>32</dim>
					<dim>160</dim>
					<dim>3</dim>
					<dim>3</dim>
				</port>
			</input>
			<output>
				<port id="1" precision="FP32">
					<dim>32</dim>
					<dim>160</dim>
					<dim>3</dim>
					<dim>3</dim>
				</port>
			</output>
		</layer>
		<layer id="39" name="p2o.Conv.4/WithoutBiases" type="Convolution" version="opset1">
			<data strides="1, 1" dilations="1, 1" pads_begin="1, 1" pads_end="1, 1" auto_pad="explicit" />
			<input>
				<port id="0" precision="FP32">
					<dim>-1</dim>
					<dim>160</dim>
					<dim>-1</dim>
					<dim>-1</dim>
				</port>
				<port id="1" precision="FP32">
					<dim>32</dim>
					<dim>160</dim>
					<dim>3</dim>
					<dim>3</dim>
				</port>
			</input>
			<output>
				<port id="2" precision="FP32">
					<dim>-1</dim>
					<dim>32</dim>
					<dim>-1</dim>
					<dim>-1</dim>
				</port>
			</output>
		</layer>
		<layer id="40" name="Reshape_43231_compressed" type="Const" version="opset1">
			<data element_type="f16" shape="1, 32, 1, 1" offset="261826" size="64" />
			<output>
				<port id="0" precision="FP16">
					<dim>1</dim>
					<dim>32</dim>
					<dim>1</dim>
					<dim>1</dim>
				</port>
			</output>
		</layer>
		<layer id="41" name="Reshape_43231" type="Convert" version="opset1">
			<data destination_type="f32" />
			<rt_info>
				<attribute name="decompression" version="0" />
			</rt_info>
			<input>
				<port id="0" precision="FP16">
					<dim>1</dim>
					<dim>32</dim>
					<dim>1</dim>
					<dim>1</dim>
				</port>
			</input>
			<output>
				<port id="1" precision="FP32">
					<dim>1</dim>
					<dim>32</dim>
					<dim>1</dim>
					<dim>1</dim>
				</port>
			</output>
		</layer>
		<layer id="42" name="p2o.Conv.4" type="Add" version="opset1">
			<data auto_broadcast="numpy" />
			<input>
				<port id="0" precision="FP32">
					<dim>-1</dim>
					<dim>32</dim>
					<dim>-1</dim>
					<dim>-1</dim>
				</port>
				<port id="1" precision="FP32">
					<dim>1</dim>
					<dim>32</dim>
					<dim>1</dim>
					<dim>1</dim>
				</port>
			</input>
			<output>
				<port id="2" precision="FP32" names="conv2d_4.tmp_0">
					<dim>-1</dim>
					<dim>32</dim>
					<dim>-1</dim>
					<dim>-1</dim>
				</port>
			</output>
		</layer>
		<layer id="43" name="Constant_43235_compressed" type="Const" version="opset1">
			<data element_type="f16" shape="1" offset="40512" size="2" />
			<output>
				<port id="0" precision="FP16">
					<dim>1</dim>
				</port>
			</output>
		</layer>
		<layer id="44" name="Constant_43235" type="Convert" version="opset1">
			<data destination_type="f32" />
			<rt_info>
				<attribute name="decompression" version="0" />
			</rt_info>
			<input>
				<port id="0" precision="FP16">
					<dim>1</dim>
				</port>
			</input>
			<output>
				<port id="1" precision="FP32">
					<dim>1</dim>
				</port>
			</output>
		</layer>
		<layer id="45" name="p2o.LeakyRelu.3" type="PReLU" version="opset1">
			<input>
				<port id="0" precision="FP32">
					<dim>-1</dim>
					<dim>32</dim>
					<dim>-1</dim>
					<dim>-1</dim>
				</port>
				<port id="1" precision="FP32">
					<dim>1</dim>
				</port>
			</input>
			<output>
				<port id="2" precision="FP32" names="leaky_relu_3.tmp_0">
					<dim>-1</dim>
					<dim>32</dim>
					<dim>-1</dim>
					<dim>-1</dim>
				</port>
			</output>
		</layer>
		<layer id="46" name="p2o.Concat.6" type="Concat" version="opset1">
			<data axis="1" />
			<input>
				<port id="0" precision="FP32">
					<dim>-1</dim>
					<dim>64</dim>
					<dim>-1</dim>
					<dim>-1</dim>
				</port>
				<port id="1" precision="FP32">
					<dim>-1</dim>
					<dim>32</dim>
					<dim>-1</dim>
					<dim>-1</dim>
				</port>
				<port id="2" precision="FP32">
					<dim>-1</dim>
					<dim>32</dim>
					<dim>-1</dim>
					<dim>-1</dim>
				</port>
				<port id="3" precision="FP32">
					<dim>-1</dim>
					<dim>32</dim>
					<dim>-1</dim>
					<dim>-1</dim>
				</port>
				<port id="4" precision="FP32">
					<dim>-1</dim>
					<dim>32</dim>
					<dim>-1</dim>
					<dim>-1</dim>
				</port>
			</input>
			<output>
				<port id="5" precision="FP32" names="p2o.Concat.7">
					<dim>-1</dim>
					<dim>192</dim>
					<dim>-1</dim>
					<dim>-1</dim>
				</port>
			</output>
		</layer>
		<layer id="47" name="Multiply_58009_compressed" type="Const" version="opset1">
			<data element_type="f16" shape="64, 192, 3, 3" offset="261890" size="221184" />
			<output>
				<port id="0" precision="FP16">
					<dim>64</dim>
					<dim>192</dim>
					<dim>3</dim>
					<dim>3</dim>
				</port>
			</output>
		</layer>
		<layer id="48" name="Multiply_58009" type="Convert" version="opset1">
			<data destination_type="f32" />
			<rt_info>
				<attribute name="decompression" version="0" />
			</rt_info>
			<input>
				<port id="0" precision="FP16">
					<dim>64</dim>
					<dim>192</dim>
					<dim>3</dim>
					<dim>3</dim>
				</port>
			</input>
			<output>
				<port id="1" precision="FP32">
					<dim>64</dim>
					<dim>192</dim>
					<dim>3</dim>
					<dim>3</dim>
				</port>
			</output>
		</layer>
		<layer id="49" name="Multiply_57733" type="Convolution" version="opset1">
			<data strides="1, 1" dilations="1, 1" pads_begin="1, 1" pads_end="1, 1" auto_pad="explicit" />
			<input>
				<port id="0" precision="FP32">
					<dim>-1</dim>
					<dim>192</dim>
					<dim>-1</dim>
					<dim>-1</dim>
				</port>
				<port id="1" precision="FP32">
					<dim>64</dim>
					<dim>192</dim>
					<dim>3</dim>
					<dim>3</dim>
				</port>
			</input>
			<output>
				<port id="2" precision="FP32">
					<dim>-1</dim>
					<dim>64</dim>
					<dim>-1</dim>
					<dim>-1</dim>
				</port>
			</output>
		</layer>
		<layer id="50" name="Constant_57735_compressed" type="Const" version="opset1">
			<data element_type="f16" shape="1, 64, 1, 1" offset="483074" size="128" />
			<output>
				<port id="0" precision="FP16">
					<dim>1</dim>
					<dim>64</dim>
					<dim>1</dim>
					<dim>1</dim>
				</port>
			</output>
		</layer>
		<layer id="51" name="Constant_57735" type="Convert" version="opset1">
			<data destination_type="f32" />
			<rt_info>
				<attribute name="decompression" version="0" />
			</rt_info>
			<input>
				<port id="0" precision="FP16">
					<dim>1</dim>
					<dim>64</dim>
					<dim>1</dim>
					<dim>1</dim>
				</port>
			</input>
			<output>
				<port id="1" precision="FP32">
					<dim>1</dim>
					<dim>64</dim>
					<dim>1</dim>
					<dim>1</dim>
				</port>
			</output>
		</layer>
		<layer id="52" name="p2o.Mul.0" type="Add" version="opset1">
			<data auto_broadcast="numpy" />
			<input>
				<port id="0" precision="FP32">
					<dim>-1</dim>
					<dim>64</dim>
					<dim>-1</dim>
					<dim>-1</dim>
				</port>
				<port id="1" precision="FP32">
					<dim>1</dim>
					<dim>64</dim>
					<dim>1</dim>
					<dim>1</dim>
				</port>
			</input>
			<output>
				<port id="2" precision="FP32" names="p2o.Mul.1">
					<dim>-1</dim>
					<dim>64</dim>
					<dim>-1</dim>
					<dim>-1</dim>
				</port>
			</output>
		</layer>
		<layer id="53" name="p2o.Add.12" type="Add" version="opset1">
			<data auto_broadcast="numpy" />
			<input>
				<port id="0" precision="FP32">
					<dim>-1</dim>
					<dim>64</dim>
					<dim>-1</dim>
					<dim>-1</dim>
				</port>
				<port id="1" precision="FP32">
					<dim>-1</dim>
					<dim>64</dim>
					<dim>-1</dim>
					<dim>-1</dim>
				</port>
			</input>
			<output>
				<port id="2" precision="FP32" names="p2o.Add.13">
					<dim>-1</dim>
					<dim>64</dim>
					<dim>-1</dim>
					<dim>-1</dim>
				</port>
			</output>
		</layer>
		<layer id="54" name="conv2d_6.w_0_compressed" type="Const" version="opset1">
			<data element_type="f16" shape="32, 64, 3, 3" offset="483202" size="36864" />
			<output>
				<port id="0" precision="FP16" names="conv2d_6.w_0">
					<dim>32</dim>
					<dim>64</dim>
					<dim>3</dim>
					<dim>3</dim>
				</port>
			</output>
		</layer>
		<layer id="55" name="conv2d_6.w_0" type="Convert" version="opset1">
			<data destination_type="f32" />
			<rt_info>
				<attribute name="decompression" version="0" />
			</rt_info>
			<input>
				<port id="0" precision="FP16">
					<dim>32</dim>
					<dim>64</dim>
					<dim>3</dim>
					<dim>3</dim>
				</port>
			</input>
			<output>
				<port id="1" precision="FP32">
					<dim>32</dim>
					<dim>64</dim>
					<dim>3</dim>
					<dim>3</dim>
				</port>
			</output>
		</layer>
		<layer id="56" name="p2o.Conv.6/WithoutBiases" type="Convolution" version="opset1">
			<data strides="1, 1" dilations="1, 1" pads_begin="1, 1" pads_end="1, 1" auto_pad="explicit" />
			<input>
				<port id="0" precision="FP32">
					<dim>-1</dim>
					<dim>64</dim>
					<dim>-1</dim>
					<dim>-1</dim>
				</port>
				<port id="1" precision="FP32">
					<dim>32</dim>
					<dim>64</dim>
					<dim>3</dim>
					<dim>3</dim>
				</port>
			</input>
			<output>
				<port id="2" precision="FP32">
					<dim>-1</dim>
					<dim>32</dim>
					<dim>-1</dim>
					<dim>-1</dim>
				</port>
			</output>
		</layer>
		<layer id="57" name="Reshape_43269_compressed" type="Const" version="opset1">
			<data element_type="f16" shape="1, 32, 1, 1" offset="520066" size="64" />
			<output>
				<port id="0" precision="FP16">
					<dim>1</dim>
					<dim>32</dim>
					<dim>1</dim>
					<dim>1</dim>
				</port>
			</output>
		</layer>
		<layer id="58" name="Reshape_43269" type="Convert" version="opset1">
			<data destination_type="f32" />
			<rt_info>
				<attribute name="decompression" version="0" />
			</rt_info>
			<input>
				<port id="0" precision="FP16">
					<dim>1</dim>
					<dim>32</dim>
					<dim>1</dim>
					<dim>1</dim>
				</port>
			</input>
			<output>
				<port id="1" precision="FP32">
					<dim>1</dim>
					<dim>32</dim>
					<dim>1</dim>
					<dim>1</dim>
				</port>
			</output>
		</layer>
		<layer id="59" name="p2o.Conv.6" type="Add" version="opset1">
			<data auto_broadcast="numpy" />
			<input>
				<port id="0" precision="FP32">
					<dim>-1</dim>
					<dim>32</dim>
					<dim>-1</dim>
					<dim>-1</dim>
				</port>
				<port id="1" precision="FP32">
					<dim>1</dim>
					<dim>32</dim>
					<dim>1</dim>
					<dim>1</dim>
				</port>
			</input>
			<output>
				<port id="2" precision="FP32" names="conv2d_6.tmp_0">
					<dim>-1</dim>
					<dim>32</dim>
					<dim>-1</dim>
					<dim>-1</dim>
				</port>
			</output>
		</layer>
		<layer id="60" name="Constant_43273_compressed" type="Const" version="opset1">
			<data element_type="f16" shape="1" offset="40512" size="2" />
			<output>
				<port id="0" precision="FP16">
					<dim>1</dim>
				</port>
			</output>
		</layer>
		<layer id="61" name="Constant_43273" type="Convert" version="opset1">
			<data destination_type="f32" />
			<rt_info>
				<attribute name="decompression" version="0" />
			</rt_info>
			<input>
				<port id="0" precision="FP16">
					<dim>1</dim>
				</port>
			</input>
			<output>
				<port id="1" precision="FP32">
					<dim>1</dim>
				</port>
			</output>
		</layer>
		<layer id="62" name="p2o.LeakyRelu.4" type="PReLU" version="opset1">
			<input>
				<port id="0" precision="FP32">
					<dim>-1</dim>
					<dim>32</dim>
					<dim>-1</dim>
					<dim>-1</dim>
				</port>
				<port id="1" precision="FP32">
					<dim>1</dim>
				</port>
			</input>
			<output>
				<port id="2" precision="FP32" names="leaky_relu_4.tmp_0">
					<dim>-1</dim>
					<dim>32</dim>
					<dim>-1</dim>
					<dim>-1</dim>
				</port>
			</output>
		</layer>
		<layer id="63" name="p2o.Concat.8" type="Concat" version="opset1">
			<data axis="1" />
			<input>
				<port id="0" precision="FP32">
					<dim>-1</dim>
					<dim>64</dim>
					<dim>-1</dim>
					<dim>-1</dim>
				</port>
				<port id="1" precision="FP32">
					<dim>-1</dim>
					<dim>32</dim>
					<dim>-1</dim>
					<dim>-1</dim>
				</port>
			</input>
			<output>
				<port id="2" precision="FP32" names="p2o.Concat.9">
					<dim>-1</dim>
					<dim>96</dim>
					<dim>-1</dim>
					<dim>-1</dim>
				</port>
			</output>
		</layer>
		<layer id="64" name="conv2d_7.w_0_compressed" type="Const" version="opset1">
			<data element_type="f16" shape="32, 96, 3, 3" offset="520130" size="55296" />
			<output>
				<port id="0" precision="FP16" names="conv2d_7.w_0">
					<dim>32</dim>
					<dim>96</dim>
					<dim>3</dim>
					<dim>3</dim>
				</port>
			</output>
		</layer>
		<layer id="65" name="conv2d_7.w_0" type="Convert" version="opset1">
			<data destination_type="f32" />
			<rt_info>
				<attribute name="decompression" version="0" />
			</rt_info>
			<input>
				<port id="0" precision="FP16">
					<dim>32</dim>
					<dim>96</dim>
					<dim>3</dim>
					<dim>3</dim>
				</port>
			</input>
			<output>
				<port id="1" precision="FP32">
					<dim>32</dim>
					<dim>96</dim>
					<dim>3</dim>
					<dim>3</dim>
				</port>
			</output>
		</layer>
		<layer id="66" name="p2o.Conv.7/WithoutBiases" type="Convolution" version="opset1">
			<data strides="1, 1" dilations="1, 1" pads_begin="1, 1" pads_end="1, 1" auto_pad="explicit" />
			<input>
				<port id="0" precision="FP32">
					<dim>-1</dim>
					<dim>96</dim>
					<dim>-1</dim>
					<dim>-1</dim>
				</port>
				<port id="1" precision="FP32">
					<dim>32</dim>
					<dim>96</dim>
					<dim>3</dim>
					<dim>3</dim>
				</port>
			</input>
			<output>
				<port id="2" precision="FP32">
					<dim>-1</dim>
					<dim>32</dim>
					<dim>-1</dim>
					<dim>-1</dim>
				</port>
			</output>
		</layer>
		<layer id="67" name="Reshape_43288_compressed" type="Const" version="opset1">
			<data element_type="f16" shape="1, 32, 1, 1" offset="575426" size="64" />
			<output>
				<port id="0" precision="FP16">
					<dim>1</dim>
					<dim>32</dim>
					<dim>1</dim>
					<dim>1</dim>
				</port>
			</output>
		</layer>
		<layer id="68" name="Reshape_43288" type="Convert" version="opset1">
			<data destination_type="f32" />
			<rt_info>
				<attribute name="decompression" version="0" />
			</rt_info>
			<input>
				<port id="0" precision="FP16">
					<dim>1</dim>
					<dim>32</dim>
					<dim>1</dim>
					<dim>1</dim>
				</port>
			</input>
			<output>
				<port id="1" precision="FP32">
					<dim>1</dim>
					<dim>32</dim>
					<dim>1</dim>
					<dim>1</dim>
				</port>
			</output>
		</layer>
		<layer id="69" name="p2o.Conv.7" type="Add" version="opset1">
			<data auto_broadcast="numpy" />
			<input>
				<port id="0" precision="FP32">
					<dim>-1</dim>
					<dim>32</dim>
					<dim>-1</dim>
					<dim>-1</dim>
				</port>
				<port id="1" precision="FP32">
					<dim>1</dim>
					<dim>32</dim>
					<dim>1</dim>
					<dim>1</dim>
				</port>
			</input>
			<output>
				<port id="2" precision="FP32" names="conv2d_7.tmp_0">
					<dim>-1</dim>
					<dim>32</dim>
					<dim>-1</dim>
					<dim>-1</dim>
				</port>
			</output>
		</layer>
		<layer id="70" name="Constant_43292_compressed" type="Const" version="opset1">
			<data element_type="f16" shape="1" offset="40512" size="2" />
			<output>
				<port id="0" precision="FP16">
					<dim>1</dim>
				</port>
			</output>
		</layer>
		<layer id="71" name="Constant_43292" type="Convert" version="opset1">
			<data destination_type="f32" />
			<rt_info>
				<attribute name="decompression" version="0" />
			</rt_info>
			<input>
				<port id="0" precision="FP16">
					<dim>1</dim>
				</port>
			</input>
			<output>
				<port id="1" precision="FP32">
					<dim>1</dim>
				</port>
			</output>
		</layer>
		<layer id="72" name="p2o.LeakyRelu.5" type="PReLU" version="opset1">
			<input>
				<port id="0" precision="FP32">
					<dim>-1</dim>
					<dim>32</dim>
					<dim>-1</dim>
					<dim>-1</dim>
				</port>
				<port id="1" precision="FP32">
					<dim>1</dim>
				</port>
			</input>
			<output>
				<port id="2" precision="FP32" names="leaky_relu_5.tmp_0">
					<dim>-1</dim>
					<dim>32</dim>
					<dim>-1</dim>
					<dim>-1</dim>
				</port>
			</output>
		</layer>
		<layer id="73" name="p2o.Concat.10" type="Concat" version="opset1">
			<data axis="1" />
			<input>
				<port id="0" precision="FP32">
					<dim>-1</dim>
					<dim>64</dim>
					<dim>-1</dim>
					<dim>-1</dim>
				</port>
				<port id="1" precision="FP32">
					<dim>-1</dim>
					<dim>32</dim>
					<dim>-1</dim>
					<dim>-1</dim>
				</port>
				<port id="2" precision="FP32">
					<dim>-1</dim>
					<dim>32</dim>
					<dim>-1</dim>
					<dim>-1</dim>
				</port>
			</input>
			<output>
				<port id="3" precision="FP32" names="p2o.Concat.11">
					<dim>-1</dim>
					<dim>128</dim>
					<dim>-1</dim>
					<dim>-1</dim>
				</port>
			</output>
		</layer>
		<layer id="74" name="conv2d_8.w_0_compressed" type="Const" version="opset1">
			<data element_type="f16" shape="32, 128, 3, 3" offset="575490" size="73728" />
			<output>
				<port id="0" precision="FP16" names="conv2d_8.w_0">
					<dim>32</dim>
					<dim>128</dim>
					<dim>3</dim>
					<dim>3</dim>
				</port>
			</output>
		</layer>
		<layer id="75" name="conv2d_8.w_0" type="Convert" version="opset1">
			<data destination_type="f32" />
			<rt_info>
				<attribute name="decompression" version="0" />
			</rt_info>
			<input>
				<port id="0" precision="FP16">
					<dim>32</dim>
					<dim>128</dim>
					<dim>3</dim>
					<dim>3</dim>
				</port>
			</input>
			<output>
				<port id="1" precision="FP32">
					<dim>32</dim>
					<dim>128</dim>
					<dim>3</dim>
					<dim>3</dim>
				</port>
			</output>
		</layer>
		<layer id="76" name="p2o.Conv.8/WithoutBiases" type="Convolution" version="opset1">
			<data strides="1, 1" dilations="1, 1" pads_begin="1, 1" pads_end="1, 1" auto_pad="explicit" />
			<input>
				<port id="0" precision="FP32">
					<dim>-1</dim>
					<dim>128</dim>
					<dim>-1</dim>
					<dim>-1</dim>
				</port>
				<port id="1" precision="FP32">
					<dim>32</dim>
					<dim>128</dim>
					<dim>3</dim>
					<dim>3</dim>
				</port>
			</input>
			<output>
				<port id="2" precision="FP32">
					<dim>-1</dim>
					<dim>32</dim>
					<dim>-1</dim>
					<dim>-1</dim>
				</port>
			</output>
		</layer>
		<layer id="77" name="Reshape_43307_compressed" type="Const" version="opset1">
			<data element_type="f16" shape="1, 32, 1, 1" offset="649218" size="64" />
			<output>
				<port id="0" precision="FP16">
					<dim>1</dim>
					<dim>32</dim>
					<dim>1</dim>
					<dim>1</dim>
				</port>
			</output>
		</layer>
		<layer id="78" name="Reshape_43307" type="Convert" version="opset1">
			<data destination_type="f32" />
			<rt_info>
				<attribute name="decompression" version="0" />
			</rt_info>
			<input>
				<port id="0" precision="FP16">
					<dim>1</dim>
					<dim>32</dim>
					<dim>1</dim>
					<dim>1</dim>
				</port>
			</input>
			<output>
				<port id="1" precision="FP32">
					<dim>1</dim>
					<dim>32</dim>
					<dim>1</dim>
					<dim>1</dim>
				</port>
			</output>
		</layer>
		<layer id="79" name="p2o.Conv.8" type="Add" version="opset1">
			<data auto_broadcast="numpy" />
			<input>
				<port id="0" precision="FP32">
					<dim>-1</dim>
					<dim>32</dim>
					<dim>-1</dim>
					<dim>-1</dim>
				</port>
				<port id="1" precision="FP32">
					<dim>1</dim>
					<dim>32</dim>
					<dim>1</dim>
					<dim>1</dim>
				</port>
			</input>
			<output>
				<port id="2" precision="FP32" names="conv2d_8.tmp_0">
					<dim>-1</dim>
					<dim>32</dim>
					<dim>-1</dim>
					<dim>-1</dim>
				</port>
			</output>
		</layer>
		<layer id="80" name="Constant_43311_compressed" type="Const" version="opset1">
			<data element_type="f16" shape="1" offset="40512" size="2" />
			<output>
				<port id="0" precision="FP16">
					<dim>1</dim>
				</port>
			</output>
		</layer>
		<layer id="81" name="Constant_43311" type="Convert" version="opset1">
			<data destination_type="f32" />
			<rt_info>
				<attribute name="decompression" version="0" />
			</rt_info>
			<input>
				<port id="0" precision="FP16">
					<dim>1</dim>
				</port>
			</input>
			<output>
				<port id="1" precision="FP32">
					<dim>1</dim>
				</port>
			</output>
		</layer>
		<layer id="82" name="p2o.LeakyRelu.6" type="PReLU" version="opset1">
			<input>
				<port id="0" precision="FP32">
					<dim>-1</dim>
					<dim>32</dim>
					<dim>-1</dim>
					<dim>-1</dim>
				</port>
				<port id="1" precision="FP32">
					<dim>1</dim>
				</port>
			</input>
			<output>
				<port id="2" precision="FP32" names="leaky_relu_6.tmp_0">
					<dim>-1</dim>
					<dim>32</dim>
					<dim>-1</dim>
					<dim>-1</dim>
				</port>
			</output>
		</layer>
		<layer id="83" name="p2o.Concat.12" type="Concat" version="opset1">
			<data axis="1" />
			<input>
				<port id="0" precision="FP32">
					<dim>-1</dim>
					<dim>64</dim>
					<dim>-1</dim>
					<dim>-1</dim>
				</port>
				<port id="1" precision="FP32">
					<dim>-1</dim>
					<dim>32</dim>
					<dim>-1</dim>
					<dim>-1</dim>
				</port>
				<port id="2" precision="FP32">
					<dim>-1</dim>
					<dim>32</dim>
					<dim>-1</dim>
					<dim>-1</dim>
				</port>
				<port id="3" precision="FP32">
					<dim>-1</dim>
					<dim>32</dim>
					<dim>-1</dim>
					<dim>-1</dim>
				</port>
			</input>
			<output>
				<port id="4" precision="FP32" names="p2o.Concat.13">
					<dim>-1</dim>
					<dim>160</dim>
					<dim>-1</dim>
					<dim>-1</dim>
				</port>
			</output>
		</layer>
		<layer id="84" name="conv2d_9.w_0_compressed" type="Const" version="opset1">
			<data element_type="f16" shape="32, 160, 3, 3" offset="649282" size="92160" />
			<output>
				<port id="0" precision="FP16" names="conv2d_9.w_0">
					<dim>32</dim>
					<dim>160</dim>
					<dim>3</dim>
					<dim>3</dim>
				</port>
			</output>
		</layer>
		<layer id="85" name="conv2d_9.w_0" type="Convert" version="opset1">
			<data destination_type="f32" />
			<rt_info>
				<attribute name="decompression" version="0" />
			</rt_info>
			<input>
				<port id="0" precision="FP16">
					<dim>32</dim>
					<dim>160</dim>
					<dim>3</dim>
					<dim>3</dim>
				</port>
			</input>
			<output>
				<port id="1" precision="FP32">
					<dim>32</dim>
					<dim>160</dim>
					<dim>3</dim>
					<dim>3</dim>
				</port>
			</output>
		</layer>
		<layer id="86" name="p2o.Conv.9/WithoutBiases" type="Convolution" version="opset1">
			<data strides="1, 1" dilations="1, 1" pads_begin="1, 1" pads_end="1, 1" auto_pad="explicit" />
			<input>
				<port id="0" precision="FP32">
					<dim>-1</dim>
					<dim>160</dim>
					<dim>-1</dim>
					<dim>-1</dim>
				</port>
				<port id="1" precision="FP32">
					<dim>32</dim>
					<dim>160</dim>
					<dim>3</dim>
					<dim>3</dim>
				</port>
			</input>
			<output>
				<port id="2" precision="FP32">
					<dim>-1</dim>
					<dim>32</dim>
					<dim>-1</dim>
					<dim>-1</dim>
				</port>
			</output>
		</layer>
		<layer id="87" name="Reshape_43326_compressed" type="Const" version="opset1">
			<data element_type="f16" shape="1, 32, 1, 1" offset="741442" size="64" />
			<output>
				<port id="0" precision="FP16">
					<dim>1</dim>
					<dim>32</dim>
					<dim>1</dim>
					<dim>1</dim>
				</port>
			</output>
		</layer>
		<layer id="88" name="Reshape_43326" type="Convert" version="opset1">
			<data destination_type="f32" />
			<rt_info>
				<attribute name="decompression" version="0" />
			</rt_info>
			<input>
				<port id="0" precision="FP16">
					<dim>1</dim>
					<dim>32</dim>
					<dim>1</dim>
					<dim>1</dim>
				</port>
			</input>
			<output>
				<port id="1" precision="FP32">
					<dim>1</dim>
					<dim>32</dim>
					<dim>1</dim>
					<dim>1</dim>
				</port>
			</output>
		</layer>
		<layer id="89" name="p2o.Conv.9" type="Add" version="opset1">
			<data auto_broadcast="numpy" />
			<input>
				<port id="0" precision="FP32">
					<dim>-1</dim>
					<dim>32</dim>
					<dim>-1</dim>
					<dim>-1</dim>
				</port>
				<port id="1" precision="FP32">
					<dim>1</dim>
					<dim>32</dim>
					<dim>1</dim>
					<dim>1</dim>
				</port>
			</input>
			<output>
				<port id="2" precision="FP32" names="conv2d_9.tmp_0">
					<dim>-1</dim>
					<dim>32</dim>
					<dim>-1</dim>
					<dim>-1</dim>
				</port>
			</output>
		</layer>
		<layer id="90" name="Constant_43330_compressed" type="Const" version="opset1">
			<data element_type="f16" shape="1" offset="40512" size="2" />
			<output>
				<port id="0" precision="FP16">
					<dim>1</dim>
				</port>
			</output>
		</layer>
		<layer id="91" name="Constant_43330" type="Convert" version="opset1">
			<data destination_type="f32" />
			<rt_info>
				<attribute name="decompression" version="0" />
			</rt_info>
			<input>
				<port id="0" precision="FP16">
					<dim>1</dim>
				</port>
			</input>
			<output>
				<port id="1" precision="FP32">
					<dim>1</dim>
				</port>
			</output>
		</layer>
		<layer id="92" name="p2o.LeakyRelu.7" type="PReLU" version="opset1">
			<input>
				<port id="0" precision="FP32">
					<dim>-1</dim>
					<dim>32</dim>
					<dim>-1</dim>
					<dim>-1</dim>
				</port>
				<port id="1" precision="FP32">
					<dim>1</dim>
				</port>
			</input>
			<output>
				<port id="2" precision="FP32" names="leaky_relu_7.tmp_0">
					<dim>-1</dim>
					<dim>32</dim>
					<dim>-1</dim>
					<dim>-1</dim>
				</port>
			</output>
		</layer>
		<layer id="93" name="p2o.Concat.14" type="Concat" version="opset1">
			<data axis="1" />
			<input>
				<port id="0" precision="FP32">
					<dim>-1</dim>
					<dim>64</dim>
					<dim>-1</dim>
					<dim>-1</dim>
				</port>
				<port id="1" precision="FP32">
					<dim>-1</dim>
					<dim>32</dim>
					<dim>-1</dim>
					<dim>-1</dim>
				</port>
				<port id="2" precision="FP32">
					<dim>-1</dim>
					<dim>32</dim>
					<dim>-1</dim>
					<dim>-1</dim>
				</port>
				<port id="3" precision="FP32">
					<dim>-1</dim>
					<dim>32</dim>
					<dim>-1</dim>
					<dim>-1</dim>
				</port>
				<port id="4" precision="FP32">
					<dim>-1</dim>
					<dim>32</dim>
					<dim>-1</dim>
					<dim>-1</dim>
				</port>
			</input>
			<output>
				<port id="5" precision="FP32" names="p2o.Concat.15">
					<dim>-1</dim>
					<dim>192</dim>
					<dim>-1</dim>
					<dim>-1</dim>
				</port>
			</output>
		</layer>
		<layer id="94" name="Multiply_58011_compressed" type="Const" version="opset1">
			<data element_type="f16" shape="64, 192, 3, 3" offset="741506" size="221184" />
			<output>
				<port id="0" precision="FP16">
					<dim>64</dim>
					<dim>192</dim>
					<dim>3</dim>
					<dim>3</dim>
				</port>
			</output>
		</layer>
		<layer id="95" name="Multiply_58011" type="Convert" version="opset1">
			<data destination_type="f32" />
			<rt_info>
				<attribute name="decompression" version="0" />
			</rt_info>
			<input>
				<port id="0" precision="FP16">
					<dim>64</dim>
					<dim>192</dim>
					<dim>3</dim>
					<dim>3</dim>
				</port>
			</input>
			<output>
				<port id="1" precision="FP32">
					<dim>64</dim>
					<dim>192</dim>
					<dim>3</dim>
					<dim>3</dim>
				</port>
			</output>
		</layer>
		<layer id="96" name="Multiply_57737" type="Convolution" version="opset1">
			<data strides="1, 1" dilations="1, 1" pads_begin="1, 1" pads_end="1, 1" auto_pad="explicit" />
			<input>
				<port id="0" precision="FP32">
					<dim>-1</dim>
					<dim>192</dim>
					<dim>-1</dim>
					<dim>-1</dim>
				</port>
				<port id="1" precision="FP32">
					<dim>64</dim>
					<dim>192</dim>
					<dim>3</dim>
					<dim>3</dim>
				</port>
			</input>
			<output>
				<port id="2" precision="FP32">
					<dim>-1</dim>
					<dim>64</dim>
					<dim>-1</dim>
					<dim>-1</dim>
				</port>
			</output>
		</layer>
		<layer id="97" name="Constant_57739_compressed" type="Const" version="opset1">
			<data element_type="f16" shape="1, 64, 1, 1" offset="962690" size="128" />
			<output>
				<port id="0" precision="FP16">
					<dim>1</dim>
					<dim>64</dim>
					<dim>1</dim>
					<dim>1</dim>
				</port>
			</output>
		</layer>
		<layer id="98" name="Constant_57739" type="Convert" version="opset1">
			<data destination_type="f32" />
			<rt_info>
				<attribute name="decompression" version="0" />
			</rt_info>
			<input>
				<port id="0" precision="FP16">
					<dim>1</dim>
					<dim>64</dim>
					<dim>1</dim>
					<dim>1</dim>
				</port>
			</input>
			<output>
				<port id="1" precision="FP32">
					<dim>1</dim>
					<dim>64</dim>
					<dim>1</dim>
					<dim>1</dim>
				</port>
			</output>
		</layer>
		<layer id="99" name="p2o.Mul.2" type="Add" version="opset1">
			<data auto_broadcast="numpy" />
			<input>
				<port id="0" precision="FP32">
					<dim>-1</dim>
					<dim>64</dim>
					<dim>-1</dim>
					<dim>-1</dim>
				</port>
				<port id="1" precision="FP32">
					<dim>1</dim>
					<dim>64</dim>
					<dim>1</dim>
					<dim>1</dim>
				</port>
			</input>
			<output>
				<port id="2" precision="FP32" names="p2o.Mul.3">
					<dim>-1</dim>
					<dim>64</dim>
					<dim>-1</dim>
					<dim>-1</dim>
				</port>
			</output>
		</layer>
		<layer id="100" name="p2o.Add.24" type="Add" version="opset1">
			<data auto_broadcast="numpy" />
			<input>
				<port id="0" precision="FP32">
					<dim>-1</dim>
					<dim>64</dim>
					<dim>-1</dim>
					<dim>-1</dim>
				</port>
				<port id="1" precision="FP32">
					<dim>-1</dim>
					<dim>64</dim>
					<dim>-1</dim>
					<dim>-1</dim>
				</port>
			</input>
			<output>
				<port id="2" precision="FP32" names="p2o.Add.25">
					<dim>-1</dim>
					<dim>64</dim>
					<dim>-1</dim>
					<dim>-1</dim>
				</port>
			</output>
		</layer>
		<layer id="101" name="conv2d_11.w_0_compressed" type="Const" version="opset1">
			<data element_type="f16" shape="32, 64, 3, 3" offset="962818" size="36864" />
			<output>
				<port id="0" precision="FP16" names="conv2d_11.w_0">
					<dim>32</dim>
					<dim>64</dim>
					<dim>3</dim>
					<dim>3</dim>
				</port>
			</output>
		</layer>
		<layer id="102" name="conv2d_11.w_0" type="Convert" version="opset1">
			<data destination_type="f32" />
			<rt_info>
				<attribute name="decompression" version="0" />
			</rt_info>
			<input>
				<port id="0" precision="FP16">
					<dim>32</dim>
					<dim>64</dim>
					<dim>3</dim>
					<dim>3</dim>
				</port>
			</input>
			<output>
				<port id="1" precision="FP32">
					<dim>32</dim>
					<dim>64</dim>
					<dim>3</dim>
					<dim>3</dim>
				</port>
			</output>
		</layer>
		<layer id="103" name="p2o.Conv.11/WithoutBiases" type="Convolution" version="opset1">
			<data strides="1, 1" dilations="1, 1" pads_begin="1, 1" pads_end="1, 1" auto_pad="explicit" />
			<input>
				<port id="0" precision="FP32">
					<dim>-1</dim>
					<dim>64</dim>
					<dim>-1</dim>
					<dim>-1</dim>
				</port>
				<port id="1" precision="FP32">
					<dim>32</dim>
					<dim>64</dim>
					<dim>3</dim>
					<dim>3</dim>
				</port>
			</input>
			<output>
				<port id="2" precision="FP32">
					<dim>-1</dim>
					<dim>32</dim>
					<dim>-1</dim>
					<dim>-1</dim>
				</port>
			</output>
		</layer>
		<layer id="104" name="Reshape_43364_compressed" type="Const" version="opset1">
			<data element_type="f16" shape="1, 32, 1, 1" offset="999682" size="64" />
			<output>
				<port id="0" precision="FP16">
					<dim>1</dim>
					<dim>32</dim>
					<dim>1</dim>
					<dim>1</dim>
				</port>
			</output>
		</layer>
		<layer id="105" name="Reshape_43364" type="Convert" version="opset1">
			<data destination_type="f32" />
			<rt_info>
				<attribute name="decompression" version="0" />
			</rt_info>
			<input>
				<port id="0" precision="FP16">
					<dim>1</dim>
					<dim>32</dim>
					<dim>1</dim>
					<dim>1</dim>
				</port>
			</input>
			<output>
				<port id="1" precision="FP32">
					<dim>1</dim>
					<dim>32</dim>
					<dim>1</dim>
					<dim>1</dim>
				</port>
			</output>
		</layer>
		<layer id="106" name="p2o.Conv.11" type="Add" version="opset1">
			<data auto_broadcast="numpy" />
			<input>
				<port id="0" precision="FP32">
					<dim>-1</dim>
					<dim>32</dim>
					<dim>-1</dim>
					<dim>-1</dim>
				</port>
				<port id="1" precision="FP32">
					<dim>1</dim>
					<dim>32</dim>
					<dim>1</dim>
					<dim>1</dim>
				</port>
			</input>
			<output>
				<port id="2" precision="FP32" names="conv2d_11.tmp_0">
					<dim>-1</dim>
					<dim>32</dim>
					<dim>-1</dim>
					<dim>-1</dim>
				</port>
			</output>
		</layer>
		<layer id="107" name="Constant_43368_compressed" type="Const" version="opset1">
			<data element_type="f16" shape="1" offset="40512" size="2" />
			<output>
				<port id="0" precision="FP16">
					<dim>1</dim>
				</port>
			</output>
		</layer>
		<layer id="108" name="Constant_43368" type="Convert" version="opset1">
			<data destination_type="f32" />
			<rt_info>
				<attribute name="decompression" version="0" />
			</rt_info>
			<input>
				<port id="0" precision="FP16">
					<dim>1</dim>
				</port>
			</input>
			<output>
				<port id="1" precision="FP32">
					<dim>1</dim>
				</port>
			</output>
		</layer>
		<layer id="109" name="p2o.LeakyRelu.8" type="PReLU" version="opset1">
			<input>
				<port id="0" precision="FP32">
					<dim>-1</dim>
					<dim>32</dim>
					<dim>-1</dim>
					<dim>-1</dim>
				</port>
				<port id="1" precision="FP32">
					<dim>1</dim>
				</port>
			</input>
			<output>
				<port id="2" precision="FP32" names="leaky_relu_8.tmp_0">
					<dim>-1</dim>
					<dim>32</dim>
					<dim>-1</dim>
					<dim>-1</dim>
				</port>
			</output>
		</layer>
		<layer id="110" name="p2o.Concat.16" type="Concat" version="opset1">
			<data axis="1" />
			<input>
				<port id="0" precision="FP32">
					<dim>-1</dim>
					<dim>64</dim>
					<dim>-1</dim>
					<dim>-1</dim>
				</port>
				<port id="1" precision="FP32">
					<dim>-1</dim>
					<dim>32</dim>
					<dim>-1</dim>
					<dim>-1</dim>
				</port>
			</input>
			<output>
				<port id="2" precision="FP32" names="p2o.Concat.17">
					<dim>-1</dim>
					<dim>96</dim>
					<dim>-1</dim>
					<dim>-1</dim>
				</port>
			</output>
		</layer>
		<layer id="111" name="conv2d_12.w_0_compressed" type="Const" version="opset1">
			<data element_type="f16" shape="32, 96, 3, 3" offset="999746" size="55296" />
			<output>
				<port id="0" precision="FP16" names="conv2d_12.w_0">
					<dim>32</dim>
					<dim>96</dim>
					<dim>3</dim>
					<dim>3</dim>
				</port>
			</output>
		</layer>
		<layer id="112" name="conv2d_12.w_0" type="Convert" version="opset1">
			<data destination_type="f32" />
			<rt_info>
				<attribute name="decompression" version="0" />
			</rt_info>
			<input>
				<port id="0" precision="FP16">
					<dim>32</dim>
					<dim>96</dim>
					<dim>3</dim>
					<dim>3</dim>
				</port>
			</input>
			<output>
				<port id="1" precision="FP32">
					<dim>32</dim>
					<dim>96</dim>
					<dim>3</dim>
					<dim>3</dim>
				</port>
			</output>
		</layer>
		<layer id="113" name="p2o.Conv.12/WithoutBiases" type="Convolution" version="opset1">
			<data strides="1, 1" dilations="1, 1" pads_begin="1, 1" pads_end="1, 1" auto_pad="explicit" />
			<input>
				<port id="0" precision="FP32">
					<dim>-1</dim>
					<dim>96</dim>
					<dim>-1</dim>
					<dim>-1</dim>
				</port>
				<port id="1" precision="FP32">
					<dim>32</dim>
					<dim>96</dim>
					<dim>3</dim>
					<dim>3</dim>
				</port>
			</input>
			<output>
				<port id="2" precision="FP32">
					<dim>-1</dim>
					<dim>32</dim>
					<dim>-1</dim>
					<dim>-1</dim>
				</port>
			</output>
		</layer>
		<layer id="114" name="Reshape_43383_compressed" type="Const" version="opset1">
			<data element_type="f16" shape="1, 32, 1, 1" offset="1055042" size="64" />
			<output>
				<port id="0" precision="FP16">
					<dim>1</dim>
					<dim>32</dim>
					<dim>1</dim>
					<dim>1</dim>
				</port>
			</output>
		</layer>
		<layer id="115" name="Reshape_43383" type="Convert" version="opset1">
			<data destination_type="f32" />
			<rt_info>
				<attribute name="decompression" version="0" />
			</rt_info>
			<input>
				<port id="0" precision="FP16">
					<dim>1</dim>
					<dim>32</dim>
					<dim>1</dim>
					<dim>1</dim>
				</port>
			</input>
			<output>
				<port id="1" precision="FP32">
					<dim>1</dim>
					<dim>32</dim>
					<dim>1</dim>
					<dim>1</dim>
				</port>
			</output>
		</layer>
		<layer id="116" name="p2o.Conv.12" type="Add" version="opset1">
			<data auto_broadcast="numpy" />
			<input>
				<port id="0" precision="FP32">
					<dim>-1</dim>
					<dim>32</dim>
					<dim>-1</dim>
					<dim>-1</dim>
				</port>
				<port id="1" precision="FP32">
					<dim>1</dim>
					<dim>32</dim>
					<dim>1</dim>
					<dim>1</dim>
				</port>
			</input>
			<output>
				<port id="2" precision="FP32" names="conv2d_12.tmp_0">
					<dim>-1</dim>
					<dim>32</dim>
					<dim>-1</dim>
					<dim>-1</dim>
				</port>
			</output>
		</layer>
		<layer id="117" name="Constant_43387_compressed" type="Const" version="opset1">
			<data element_type="f16" shape="1" offset="40512" size="2" />
			<output>
				<port id="0" precision="FP16">
					<dim>1</dim>
				</port>
			</output>
		</layer>
		<layer id="118" name="Constant_43387" type="Convert" version="opset1">
			<data destination_type="f32" />
			<rt_info>
				<attribute name="decompression" version="0" />
			</rt_info>
			<input>
				<port id="0" precision="FP16">
					<dim>1</dim>
				</port>
			</input>
			<output>
				<port id="1" precision="FP32">
					<dim>1</dim>
				</port>
			</output>
		</layer>
		<layer id="119" name="p2o.LeakyRelu.9" type="PReLU" version="opset1">
			<input>
				<port id="0" precision="FP32">
					<dim>-1</dim>
					<dim>32</dim>
					<dim>-1</dim>
					<dim>-1</dim>
				</port>
				<port id="1" precision="FP32">
					<dim>1</dim>
				</port>
			</input>
			<output>
				<port id="2" precision="FP32" names="leaky_relu_9.tmp_0">
					<dim>-1</dim>
					<dim>32</dim>
					<dim>-1</dim>
					<dim>-1</dim>
				</port>
			</output>
		</layer>
		<layer id="120" name="p2o.Concat.18" type="Concat" version="opset1">
			<data axis="1" />
			<input>
				<port id="0" precision="FP32">
					<dim>-1</dim>
					<dim>64</dim>
					<dim>-1</dim>
					<dim>-1</dim>
				</port>
				<port id="1" precision="FP32">
					<dim>-1</dim>
					<dim>32</dim>
					<dim>-1</dim>
					<dim>-1</dim>
				</port>
				<port id="2" precision="FP32">
					<dim>-1</dim>
					<dim>32</dim>
					<dim>-1</dim>
					<dim>-1</dim>
				</port>
			</input>
			<output>
				<port id="3" precision="FP32" names="p2o.Concat.19">
					<dim>-1</dim>
					<dim>128</dim>
					<dim>-1</dim>
					<dim>-1</dim>
				</port>
			</output>
		</layer>
		<layer id="121" name="conv2d_13.w_0_compressed" type="Const" version="opset1">
			<data element_type="f16" shape="32, 128, 3, 3" offset="1055106" size="73728" />
			<output>
				<port id="0" precision="FP16" names="conv2d_13.w_0">
					<dim>32</dim>
					<dim>128</dim>
					<dim>3</dim>
					<dim>3</dim>
				</port>
			</output>
		</layer>
		<layer id="122" name="conv2d_13.w_0" type="Convert" version="opset1">
			<data destination_type="f32" />
			<rt_info>
				<attribute name="decompression" version="0" />
			</rt_info>
			<input>
				<port id="0" precision="FP16">
					<dim>32</dim>
					<dim>128</dim>
					<dim>3</dim>
					<dim>3</dim>
				</port>
			</input>
			<output>
				<port id="1" precision="FP32">
					<dim>32</dim>
					<dim>128</dim>
					<dim>3</dim>
					<dim>3</dim>
				</port>
			</output>
		</layer>
		<layer id="123" name="p2o.Conv.13/WithoutBiases" type="Convolution" version="opset1">
			<data strides="1, 1" dilations="1, 1" pads_begin="1, 1" pads_end="1, 1" auto_pad="explicit" />
			<input>
				<port id="0" precision="FP32">
					<dim>-1</dim>
					<dim>128</dim>
					<dim>-1</dim>
					<dim>-1</dim>
				</port>
				<port id="1" precision="FP32">
					<dim>32</dim>
					<dim>128</dim>
					<dim>3</dim>
					<dim>3</dim>
				</port>
			</input>
			<output>
				<port id="2" precision="FP32">
					<dim>-1</dim>
					<dim>32</dim>
					<dim>-1</dim>
					<dim>-1</dim>
				</port>
			</output>
		</layer>
		<layer id="124" name="Reshape_43402_compressed" type="Const" version="opset1">
			<data element_type="f16" shape="1, 32, 1, 1" offset="1128834" size="64" />
			<output>
				<port id="0" precision="FP16">
					<dim>1</dim>
					<dim>32</dim>
					<dim>1</dim>
					<dim>1</dim>
				</port>
			</output>
		</layer>
		<layer id="125" name="Reshape_43402" type="Convert" version="opset1">
			<data destination_type="f32" />
			<rt_info>
				<attribute name="decompression" version="0" />
			</rt_info>
			<input>
				<port id="0" precision="FP16">
					<dim>1</dim>
					<dim>32</dim>
					<dim>1</dim>
					<dim>1</dim>
				</port>
			</input>
			<output>
				<port id="1" precision="FP32">
					<dim>1</dim>
					<dim>32</dim>
					<dim>1</dim>
					<dim>1</dim>
				</port>
			</output>
		</layer>
		<layer id="126" name="p2o.Conv.13" type="Add" version="opset1">
			<data auto_broadcast="numpy" />
			<input>
				<port id="0" precision="FP32">
					<dim>-1</dim>
					<dim>32</dim>
					<dim>-1</dim>
					<dim>-1</dim>
				</port>
				<port id="1" precision="FP32">
					<dim>1</dim>
					<dim>32</dim>
					<dim>1</dim>
					<dim>1</dim>
				</port>
			</input>
			<output>
				<port id="2" precision="FP32" names="conv2d_13.tmp_0">
					<dim>-1</dim>
					<dim>32</dim>
					<dim>-1</dim>
					<dim>-1</dim>
				</port>
			</output>
		</layer>
		<layer id="127" name="Constant_43406_compressed" type="Const" version="opset1">
			<data element_type="f16" shape="1" offset="40512" size="2" />
			<output>
				<port id="0" precision="FP16">
					<dim>1</dim>
				</port>
			</output>
		</layer>
		<layer id="128" name="Constant_43406" type="Convert" version="opset1">
			<data destination_type="f32" />
			<rt_info>
				<attribute name="decompression" version="0" />
			</rt_info>
			<input>
				<port id="0" precision="FP16">
					<dim>1</dim>
				</port>
			</input>
			<output>
				<port id="1" precision="FP32">
					<dim>1</dim>
				</port>
			</output>
		</layer>
		<layer id="129" name="p2o.LeakyRelu.10" type="PReLU" version="opset1">
			<input>
				<port id="0" precision="FP32">
					<dim>-1</dim>
					<dim>32</dim>
					<dim>-1</dim>
					<dim>-1</dim>
				</port>
				<port id="1" precision="FP32">
					<dim>1</dim>
				</port>
			</input>
			<output>
				<port id="2" precision="FP32" names="leaky_relu_10.tmp_0">
					<dim>-1</dim>
					<dim>32</dim>
					<dim>-1</dim>
					<dim>-1</dim>
				</port>
			</output>
		</layer>
		<layer id="130" name="p2o.Concat.20" type="Concat" version="opset1">
			<data axis="1" />
			<input>
				<port id="0" precision="FP32">
					<dim>-1</dim>
					<dim>64</dim>
					<dim>-1</dim>
					<dim>-1</dim>
				</port>
				<port id="1" precision="FP32">
					<dim>-1</dim>
					<dim>32</dim>
					<dim>-1</dim>
					<dim>-1</dim>
				</port>
				<port id="2" precision="FP32">
					<dim>-1</dim>
					<dim>32</dim>
					<dim>-1</dim>
					<dim>-1</dim>
				</port>
				<port id="3" precision="FP32">
					<dim>-1</dim>
					<dim>32</dim>
					<dim>-1</dim>
					<dim>-1</dim>
				</port>
			</input>
			<output>
				<port id="4" precision="FP32" names="p2o.Concat.21">
					<dim>-1</dim>
					<dim>160</dim>
					<dim>-1</dim>
					<dim>-1</dim>
				</port>
			</output>
		</layer>
		<layer id="131" name="conv2d_14.w_0_compressed" type="Const" version="opset1">
			<data element_type="f16" shape="32, 160, 3, 3" offset="1128898" size="92160" />
			<output>
				<port id="0" precision="FP16" names="conv2d_14.w_0">
					<dim>32</dim>
					<dim>160</dim>
					<dim>3</dim>
					<dim>3</dim>
				</port>
			</output>
		</layer>
		<layer id="132" name="conv2d_14.w_0" type="Convert" version="opset1">
			<data destination_type="f32" />
			<rt_info>
				<attribute name="decompression" version="0" />
			</rt_info>
			<input>
				<port id="0" precision="FP16">
					<dim>32</dim>
					<dim>160</dim>
					<dim>3</dim>
					<dim>3</dim>
				</port>
			</input>
			<output>
				<port id="1" precision="FP32">
					<dim>32</dim>
					<dim>160</dim>
					<dim>3</dim>
					<dim>3</dim>
				</port>
			</output>
		</layer>
		<layer id="133" name="p2o.Conv.14/WithoutBiases" type="Convolution" version="opset1">
			<data strides="1, 1" dilations="1, 1" pads_begin="1, 1" pads_end="1, 1" auto_pad="explicit" />
			<input>
				<port id="0" precision="FP32">
					<dim>-1</dim>
					<dim>160</dim>
					<dim>-1</dim>
					<dim>-1</dim>
				</port>
				<port id="1" precision="FP32">
					<dim>32</dim>
					<dim>160</dim>
					<dim>3</dim>
					<dim>3</dim>
				</port>
			</input>
			<output>
				<port id="2" precision="FP32">
					<dim>-1</dim>
					<dim>32</dim>
					<dim>-1</dim>
					<dim>-1</dim>
				</port>
			</output>
		</layer>
		<layer id="134" name="Reshape_43421_compressed" type="Const" version="opset1">
			<data element_type="f16" shape="1, 32, 1, 1" offset="1221058" size="64" />
			<output>
				<port id="0" precision="FP16">
					<dim>1</dim>
					<dim>32</dim>
					<dim>1</dim>
					<dim>1</dim>
				</port>
			</output>
		</layer>
		<layer id="135" name="Reshape_43421" type="Convert" version="opset1">
			<data destination_type="f32" />
			<rt_info>
				<attribute name="decompression" version="0" />
			</rt_info>
			<input>
				<port id="0" precision="FP16">
					<dim>1</dim>
					<dim>32</dim>
					<dim>1</dim>
					<dim>1</dim>
				</port>
			</input>
			<output>
				<port id="1" precision="FP32">
					<dim>1</dim>
					<dim>32</dim>
					<dim>1</dim>
					<dim>1</dim>
				</port>
			</output>
		</layer>
		<layer id="136" name="p2o.Conv.14" type="Add" version="opset1">
			<data auto_broadcast="numpy" />
			<input>
				<port id="0" precision="FP32">
					<dim>-1</dim>
					<dim>32</dim>
					<dim>-1</dim>
					<dim>-1</dim>
				</port>
				<port id="1" precision="FP32">
					<dim>1</dim>
					<dim>32</dim>
					<dim>1</dim>
					<dim>1</dim>
				</port>
			</input>
			<output>
				<port id="2" precision="FP32" names="conv2d_14.tmp_0">
					<dim>-1</dim>
					<dim>32</dim>
					<dim>-1</dim>
					<dim>-1</dim>
				</port>
			</output>
		</layer>
		<layer id="137" name="Constant_43425_compressed" type="Const" version="opset1">
			<data element_type="f16" shape="1" offset="40512" size="2" />
			<output>
				<port id="0" precision="FP16">
					<dim>1</dim>
				</port>
			</output>
		</layer>
		<layer id="138" name="Constant_43425" type="Convert" version="opset1">
			<data destination_type="f32" />
			<rt_info>
				<attribute name="decompression" version="0" />
			</rt_info>
			<input>
				<port id="0" precision="FP16">
					<dim>1</dim>
				</port>
			</input>
			<output>
				<port id="1" precision="FP32">
					<dim>1</dim>
				</port>
			</output>
		</layer>
		<layer id="139" name="p2o.LeakyRelu.11" type="PReLU" version="opset1">
			<input>
				<port id="0" precision="FP32">
					<dim>-1</dim>
					<dim>32</dim>
					<dim>-1</dim>
					<dim>-1</dim>
				</port>
				<port id="1" precision="FP32">
					<dim>1</dim>
				</port>
			</input>
			<output>
				<port id="2" precision="FP32" names="leaky_relu_11.tmp_0">
					<dim>-1</dim>
					<dim>32</dim>
					<dim>-1</dim>
					<dim>-1</dim>
				</port>
			</output>
		</layer>
		<layer id="140" name="p2o.Concat.22" type="Concat" version="opset1">
			<data axis="1" />
			<input>
				<port id="0" precision="FP32">
					<dim>-1</dim>
					<dim>64</dim>
					<dim>-1</dim>
					<dim>-1</dim>
				</port>
				<port id="1" precision="FP32">
					<dim>-1</dim>
					<dim>32</dim>
					<dim>-1</dim>
					<dim>-1</dim>
				</port>
				<port id="2" precision="FP32">
					<dim>-1</dim>
					<dim>32</dim>
					<dim>-1</dim>
					<dim>-1</dim>
				</port>
				<port id="3" precision="FP32">
					<dim>-1</dim>
					<dim>32</dim>
					<dim>-1</dim>
					<dim>-1</dim>
				</port>
				<port id="4" precision="FP32">
					<dim>-1</dim>
					<dim>32</dim>
					<dim>-1</dim>
					<dim>-1</dim>
				</port>
			</input>
			<output>
				<port id="5" precision="FP32" names="p2o.Concat.23">
					<dim>-1</dim>
					<dim>192</dim>
					<dim>-1</dim>
					<dim>-1</dim>
				</port>
			</output>
		</layer>
		<layer id="141" name="Multiply_58013_compressed" type="Const" version="opset1">
			<data element_type="f16" shape="64, 192, 3, 3" offset="1221122" size="221184" />
			<output>
				<port id="0" precision="FP16">
					<dim>64</dim>
					<dim>192</dim>
					<dim>3</dim>
					<dim>3</dim>
				</port>
			</output>
		</layer>
		<layer id="142" name="Multiply_58013" type="Convert" version="opset1">
			<data destination_type="f32" />
			<rt_info>
				<attribute name="decompression" version="0" />
			</rt_info>
			<input>
				<port id="0" precision="FP16">
					<dim>64</dim>
					<dim>192</dim>
					<dim>3</dim>
					<dim>3</dim>
				</port>
			</input>
			<output>
				<port id="1" precision="FP32">
					<dim>64</dim>
					<dim>192</dim>
					<dim>3</dim>
					<dim>3</dim>
				</port>
			</output>
		</layer>
		<layer id="143" name="Multiply_57741" type="Convolution" version="opset1">
			<data strides="1, 1" dilations="1, 1" pads_begin="1, 1" pads_end="1, 1" auto_pad="explicit" />
			<input>
				<port id="0" precision="FP32">
					<dim>-1</dim>
					<dim>192</dim>
					<dim>-1</dim>
					<dim>-1</dim>
				</port>
				<port id="1" precision="FP32">
					<dim>64</dim>
					<dim>192</dim>
					<dim>3</dim>
					<dim>3</dim>
				</port>
			</input>
			<output>
				<port id="2" precision="FP32">
					<dim>-1</dim>
					<dim>64</dim>
					<dim>-1</dim>
					<dim>-1</dim>
				</port>
			</output>
		</layer>
		<layer id="144" name="Constant_57743_compressed" type="Const" version="opset1">
			<data element_type="f16" shape="1, 64, 1, 1" offset="1442306" size="128" />
			<output>
				<port id="0" precision="FP16">
					<dim>1</dim>
					<dim>64</dim>
					<dim>1</dim>
					<dim>1</dim>
				</port>
			</output>
		</layer>
		<layer id="145" name="Constant_57743" type="Convert" version="opset1">
			<data destination_type="f32" />
			<rt_info>
				<attribute name="decompression" version="0" />
			</rt_info>
			<input>
				<port id="0" precision="FP16">
					<dim>1</dim>
					<dim>64</dim>
					<dim>1</dim>
					<dim>1</dim>
				</port>
			</input>
			<output>
				<port id="1" precision="FP32">
					<dim>1</dim>
					<dim>64</dim>
					<dim>1</dim>
					<dim>1</dim>
				</port>
			</output>
		</layer>
		<layer id="146" name="p2o.Mul.4" type="Add" version="opset1">
			<data auto_broadcast="numpy" />
			<input>
				<port id="0" precision="FP32">
					<dim>-1</dim>
					<dim>64</dim>
					<dim>-1</dim>
					<dim>-1</dim>
				</port>
				<port id="1" precision="FP32">
					<dim>1</dim>
					<dim>64</dim>
					<dim>1</dim>
					<dim>1</dim>
				</port>
			</input>
			<output>
				<port id="2" precision="FP32" names="p2o.Mul.5">
					<dim>-1</dim>
					<dim>64</dim>
					<dim>-1</dim>
					<dim>-1</dim>
				</port>
			</output>
		</layer>
		<layer id="147" name="p2o.Add.36" type="Add" version="opset1">
			<data auto_broadcast="numpy" />
			<input>
				<port id="0" precision="FP32">
					<dim>-1</dim>
					<dim>64</dim>
					<dim>-1</dim>
					<dim>-1</dim>
				</port>
				<port id="1" precision="FP32">
					<dim>-1</dim>
					<dim>64</dim>
					<dim>-1</dim>
					<dim>-1</dim>
				</port>
			</input>
			<output>
				<port id="2" precision="FP32" names="p2o.Add.37">
					<dim>-1</dim>
					<dim>64</dim>
					<dim>-1</dim>
					<dim>-1</dim>
				</port>
			</output>
		</layer>
		<layer id="148" name="Constant_58224_compressed" type="Const" version="opset1">
			<data element_type="f16" shape="1, 1, 1, 1" offset="40512" size="2" />
			<output>
				<port id="0" precision="FP16">
					<dim>1</dim>
					<dim>1</dim>
					<dim>1</dim>
					<dim>1</dim>
				</port>
			</output>
		</layer>
		<layer id="149" name="Constant_58224" type="Convert" version="opset1">
			<data destination_type="f32" />
			<rt_info>
				<attribute name="decompression" version="0" />
			</rt_info>
			<input>
				<port id="0" precision="FP16">
					<dim>1</dim>
					<dim>1</dim>
					<dim>1</dim>
					<dim>1</dim>
				</port>
			</input>
			<output>
				<port id="1" precision="FP32">
					<dim>1</dim>
					<dim>1</dim>
					<dim>1</dim>
					<dim>1</dim>
				</port>
			</output>
		</layer>
		<layer id="150" name="p2o.Mul.6" type="Multiply" version="opset1">
			<data auto_broadcast="numpy" />
			<input>
				<port id="0" precision="FP32">
					<dim>-1</dim>
					<dim>64</dim>
					<dim>-1</dim>
					<dim>-1</dim>
				</port>
				<port id="1" precision="FP32">
					<dim>1</dim>
					<dim>1</dim>
					<dim>1</dim>
					<dim>1</dim>
				</port>
			</input>
			<output>
				<port id="2" precision="FP32" names="p2o.Mul.7">
					<dim>-1</dim>
					<dim>64</dim>
					<dim>-1</dim>
					<dim>-1</dim>
				</port>
			</output>
		</layer>
		<layer id="151" name="p2o.Add.38" type="Add" version="opset1">
			<data auto_broadcast="numpy" />
			<input>
				<port id="0" precision="FP32">
					<dim>-1</dim>
					<dim>64</dim>
					<dim>-1</dim>
					<dim>-1</dim>
				</port>
				<port id="1" precision="FP32">
					<dim>-1</dim>
					<dim>64</dim>
					<dim>-1</dim>
					<dim>-1</dim>
				</port>
			</input>
			<output>
				<port id="2" precision="FP32" names="p2o.Add.39">
					<dim>-1</dim>
					<dim>64</dim>
					<dim>-1</dim>
					<dim>-1</dim>
				</port>
			</output>
		</layer>
		<layer id="152" name="conv2d_16.w_0_compressed" type="Const" version="opset1">
			<data element_type="f16" shape="32, 64, 3, 3" offset="1442434" size="36864" />
			<output>
				<port id="0" precision="FP16" names="conv2d_16.w_0">
					<dim>32</dim>
					<dim>64</dim>
					<dim>3</dim>
					<dim>3</dim>
				</port>
			</output>
		</layer>
		<layer id="153" name="conv2d_16.w_0" type="Convert" version="opset1">
			<data destination_type="f32" />
			<rt_info>
				<attribute name="decompression" version="0" />
			</rt_info>
			<input>
				<port id="0" precision="FP16">
					<dim>32</dim>
					<dim>64</dim>
					<dim>3</dim>
					<dim>3</dim>
				</port>
			</input>
			<output>
				<port id="1" precision="FP32">
					<dim>32</dim>
					<dim>64</dim>
					<dim>3</dim>
					<dim>3</dim>
				</port>
			</output>
		</layer>
		<layer id="154" name="p2o.Conv.16/WithoutBiases" type="Convolution" version="opset1">
			<data strides="1, 1" dilations="1, 1" pads_begin="1, 1" pads_end="1, 1" auto_pad="explicit" />
			<input>
				<port id="0" precision="FP32">
					<dim>-1</dim>
					<dim>64</dim>
					<dim>-1</dim>
					<dim>-1</dim>
				</port>
				<port id="1" precision="FP32">
					<dim>32</dim>
					<dim>64</dim>
					<dim>3</dim>
					<dim>3</dim>
				</port>
			</input>
			<output>
				<port id="2" precision="FP32">
					<dim>-1</dim>
					<dim>32</dim>
					<dim>-1</dim>
					<dim>-1</dim>
				</port>
			</output>
		</layer>
		<layer id="155" name="Reshape_43462_compressed" type="Const" version="opset1">
			<data element_type="f16" shape="1, 32, 1, 1" offset="1479298" size="64" />
			<output>
				<port id="0" precision="FP16">
					<dim>1</dim>
					<dim>32</dim>
					<dim>1</dim>
					<dim>1</dim>
				</port>
			</output>
		</layer>
		<layer id="156" name="Reshape_43462" type="Convert" version="opset1">
			<data destination_type="f32" />
			<rt_info>
				<attribute name="decompression" version="0" />
			</rt_info>
			<input>
				<port id="0" precision="FP16">
					<dim>1</dim>
					<dim>32</dim>
					<dim>1</dim>
					<dim>1</dim>
				</port>
			</input>
			<output>
				<port id="1" precision="FP32">
					<dim>1</dim>
					<dim>32</dim>
					<dim>1</dim>
					<dim>1</dim>
				</port>
			</output>
		</layer>
		<layer id="157" name="p2o.Conv.16" type="Add" version="opset1">
			<data auto_broadcast="numpy" />
			<input>
				<port id="0" precision="FP32">
					<dim>-1</dim>
					<dim>32</dim>
					<dim>-1</dim>
					<dim>-1</dim>
				</port>
				<port id="1" precision="FP32">
					<dim>1</dim>
					<dim>32</dim>
					<dim>1</dim>
					<dim>1</dim>
				</port>
			</input>
			<output>
				<port id="2" precision="FP32" names="conv2d_16.tmp_0">
					<dim>-1</dim>
					<dim>32</dim>
					<dim>-1</dim>
					<dim>-1</dim>
				</port>
			</output>
		</layer>
		<layer id="158" name="Constant_43466_compressed" type="Const" version="opset1">
			<data element_type="f16" shape="1" offset="40512" size="2" />
			<output>
				<port id="0" precision="FP16">
					<dim>1</dim>
				</port>
			</output>
		</layer>
		<layer id="159" name="Constant_43466" type="Convert" version="opset1">
			<data destination_type="f32" />
			<rt_info>
				<attribute name="decompression" version="0" />
			</rt_info>
			<input>
				<port id="0" precision="FP16">
					<dim>1</dim>
				</port>
			</input>
			<output>
				<port id="1" precision="FP32">
					<dim>1</dim>
				</port>
			</output>
		</layer>
		<layer id="160" name="p2o.LeakyRelu.12" type="PReLU" version="opset1">
			<input>
				<port id="0" precision="FP32">
					<dim>-1</dim>
					<dim>32</dim>
					<dim>-1</dim>
					<dim>-1</dim>
				</port>
				<port id="1" precision="FP32">
					<dim>1</dim>
				</port>
			</input>
			<output>
				<port id="2" precision="FP32" names="leaky_relu_12.tmp_0">
					<dim>-1</dim>
					<dim>32</dim>
					<dim>-1</dim>
					<dim>-1</dim>
				</port>
			</output>
		</layer>
		<layer id="161" name="p2o.Concat.24" type="Concat" version="opset1">
			<data axis="1" />
			<input>
				<port id="0" precision="FP32">
					<dim>-1</dim>
					<dim>64</dim>
					<dim>-1</dim>
					<dim>-1</dim>
				</port>
				<port id="1" precision="FP32">
					<dim>-1</dim>
					<dim>32</dim>
					<dim>-1</dim>
					<dim>-1</dim>
				</port>
			</input>
			<output>
				<port id="2" precision="FP32" names="p2o.Concat.25">
					<dim>-1</dim>
					<dim>96</dim>
					<dim>-1</dim>
					<dim>-1</dim>
				</port>
			</output>
		</layer>
		<layer id="162" name="conv2d_17.w_0_compressed" type="Const" version="opset1">
			<data element_type="f16" shape="32, 96, 3, 3" offset="1479362" size="55296" />
			<output>
				<port id="0" precision="FP16" names="conv2d_17.w_0">
					<dim>32</dim>
					<dim>96</dim>
					<dim>3</dim>
					<dim>3</dim>
				</port>
			</output>
		</layer>
		<layer id="163" name="conv2d_17.w_0" type="Convert" version="opset1">
			<data destination_type="f32" />
			<rt_info>
				<attribute name="decompression" version="0" />
			</rt_info>
			<input>
				<port id="0" precision="FP16">
					<dim>32</dim>
					<dim>96</dim>
					<dim>3</dim>
					<dim>3</dim>
				</port>
			</input>
			<output>
				<port id="1" precision="FP32">
					<dim>32</dim>
					<dim>96</dim>
					<dim>3</dim>
					<dim>3</dim>
				</port>
			</output>
		</layer>
		<layer id="164" name="p2o.Conv.17/WithoutBiases" type="Convolution" version="opset1">
			<data strides="1, 1" dilations="1, 1" pads_begin="1, 1" pads_end="1, 1" auto_pad="explicit" />
			<input>
				<port id="0" precision="FP32">
					<dim>-1</dim>
					<dim>96</dim>
					<dim>-1</dim>
					<dim>-1</dim>
				</port>
				<port id="1" precision="FP32">
					<dim>32</dim>
					<dim>96</dim>
					<dim>3</dim>
					<dim>3</dim>
				</port>
			</input>
			<output>
				<port id="2" precision="FP32">
					<dim>-1</dim>
					<dim>32</dim>
					<dim>-1</dim>
					<dim>-1</dim>
				</port>
			</output>
		</layer>
		<layer id="165" name="Reshape_43481_compressed" type="Const" version="opset1">
			<data element_type="f16" shape="1, 32, 1, 1" offset="1534658" size="64" />
			<output>
				<port id="0" precision="FP16">
					<dim>1</dim>
					<dim>32</dim>
					<dim>1</dim>
					<dim>1</dim>
				</port>
			</output>
		</layer>
		<layer id="166" name="Reshape_43481" type="Convert" version="opset1">
			<data destination_type="f32" />
			<rt_info>
				<attribute name="decompression" version="0" />
			</rt_info>
			<input>
				<port id="0" precision="FP16">
					<dim>1</dim>
					<dim>32</dim>
					<dim>1</dim>
					<dim>1</dim>
				</port>
			</input>
			<output>
				<port id="1" precision="FP32">
					<dim>1</dim>
					<dim>32</dim>
					<dim>1</dim>
					<dim>1</dim>
				</port>
			</output>
		</layer>
		<layer id="167" name="p2o.Conv.17" type="Add" version="opset1">
			<data auto_broadcast="numpy" />
			<input>
				<port id="0" precision="FP32">
					<dim>-1</dim>
					<dim>32</dim>
					<dim>-1</dim>
					<dim>-1</dim>
				</port>
				<port id="1" precision="FP32">
					<dim>1</dim>
					<dim>32</dim>
					<dim>1</dim>
					<dim>1</dim>
				</port>
			</input>
			<output>
				<port id="2" precision="FP32" names="conv2d_17.tmp_0">
					<dim>-1</dim>
					<dim>32</dim>
					<dim>-1</dim>
					<dim>-1</dim>
				</port>
			</output>
		</layer>
		<layer id="168" name="Constant_43485_compressed" type="Const" version="opset1">
			<data element_type="f16" shape="1" offset="40512" size="2" />
			<output>
				<port id="0" precision="FP16">
					<dim>1</dim>
				</port>
			</output>
		</layer>
		<layer id="169" name="Constant_43485" type="Convert" version="opset1">
			<data destination_type="f32" />
			<rt_info>
				<attribute name="decompression" version="0" />
			</rt_info>
			<input>
				<port id="0" precision="FP16">
					<dim>1</dim>
				</port>
			</input>
			<output>
				<port id="1" precision="FP32">
					<dim>1</dim>
				</port>
			</output>
		</layer>
		<layer id="170" name="p2o.LeakyRelu.13" type="PReLU" version="opset1">
			<input>
				<port id="0" precision="FP32">
					<dim>-1</dim>
					<dim>32</dim>
					<dim>-1</dim>
					<dim>-1</dim>
				</port>
				<port id="1" precision="FP32">
					<dim>1</dim>
				</port>
			</input>
			<output>
				<port id="2" precision="FP32" names="leaky_relu_13.tmp_0">
					<dim>-1</dim>
					<dim>32</dim>
					<dim>-1</dim>
					<dim>-1</dim>
				</port>
			</output>
		</layer>
		<layer id="171" name="p2o.Concat.26" type="Concat" version="opset1">
			<data axis="1" />
			<input>
				<port id="0" precision="FP32">
					<dim>-1</dim>
					<dim>64</dim>
					<dim>-1</dim>
					<dim>-1</dim>
				</port>
				<port id="1" precision="FP32">
					<dim>-1</dim>
					<dim>32</dim>
					<dim>-1</dim>
					<dim>-1</dim>
				</port>
				<port id="2" precision="FP32">
					<dim>-1</dim>
					<dim>32</dim>
					<dim>-1</dim>
					<dim>-1</dim>
				</port>
			</input>
			<output>
				<port id="3" precision="FP32" names="p2o.Concat.27">
					<dim>-1</dim>
					<dim>128</dim>
					<dim>-1</dim>
					<dim>-1</dim>
				</port>
			</output>
		</layer>
		<layer id="172" name="conv2d_18.w_0_compressed" type="Const" version="opset1">
			<data element_type="f16" shape="32, 128, 3, 3" offset="1534722" size="73728" />
			<output>
				<port id="0" precision="FP16" names="conv2d_18.w_0">
					<dim>32</dim>
					<dim>128</dim>
					<dim>3</dim>
					<dim>3</dim>
				</port>
			</output>
		</layer>
		<layer id="173" name="conv2d_18.w_0" type="Convert" version="opset1">
			<data destination_type="f32" />
			<rt_info>
				<attribute name="decompression" version="0" />
			</rt_info>
			<input>
				<port id="0" precision="FP16">
					<dim>32</dim>
					<dim>128</dim>
					<dim>3</dim>
					<dim>3</dim>
				</port>
			</input>
			<output>
				<port id="1" precision="FP32">
					<dim>32</dim>
					<dim>128</dim>
					<dim>3</dim>
					<dim>3</dim>
				</port>
			</output>
		</layer>
		<layer id="174" name="p2o.Conv.18/WithoutBiases" type="Convolution" version="opset1">
			<data strides="1, 1" dilations="1, 1" pads_begin="1, 1" pads_end="1, 1" auto_pad="explicit" />
			<input>
				<port id="0" precision="FP32">
					<dim>-1</dim>
					<dim>128</dim>
					<dim>-1</dim>
					<dim>-1</dim>
				</port>
				<port id="1" precision="FP32">
					<dim>32</dim>
					<dim>128</dim>
					<dim>3</dim>
					<dim>3</dim>
				</port>
			</input>
			<output>
				<port id="2" precision="FP32">
					<dim>-1</dim>
					<dim>32</dim>
					<dim>-1</dim>
					<dim>-1</dim>
				</port>
			</output>
		</layer>
		<layer id="175" name="Reshape_43500_compressed" type="Const" version="opset1">
			<data element_type="f16" shape="1, 32, 1, 1" offset="1608450" size="64" />
			<output>
				<port id="0" precision="FP16">
					<dim>1</dim>
					<dim>32</dim>
					<dim>1</dim>
					<dim>1</dim>
				</port>
			</output>
		</layer>
		<layer id="176" name="Reshape_43500" type="Convert" version="opset1">
			<data destination_type="f32" />
			<rt_info>
				<attribute name="decompression" version="0" />
			</rt_info>
			<input>
				<port id="0" precision="FP16">
					<dim>1</dim>
					<dim>32</dim>
					<dim>1</dim>
					<dim>1</dim>
				</port>
			</input>
			<output>
				<port id="1" precision="FP32">
					<dim>1</dim>
					<dim>32</dim>
					<dim>1</dim>
					<dim>1</dim>
				</port>
			</output>
		</layer>
		<layer id="177" name="p2o.Conv.18" type="Add" version="opset1">
			<data auto_broadcast="numpy" />
			<input>
				<port id="0" precision="FP32">
					<dim>-1</dim>
					<dim>32</dim>
					<dim>-1</dim>
					<dim>-1</dim>
				</port>
				<port id="1" precision="FP32">
					<dim>1</dim>
					<dim>32</dim>
					<dim>1</dim>
					<dim>1</dim>
				</port>
			</input>
			<output>
				<port id="2" precision="FP32" names="conv2d_18.tmp_0">
					<dim>-1</dim>
					<dim>32</dim>
					<dim>-1</dim>
					<dim>-1</dim>
				</port>
			</output>
		</layer>
		<layer id="178" name="Constant_43504_compressed" type="Const" version="opset1">
			<data element_type="f16" shape="1" offset="40512" size="2" />
			<output>
				<port id="0" precision="FP16">
					<dim>1</dim>
				</port>
			</output>
		</layer>
		<layer id="179" name="Constant_43504" type="Convert" version="opset1">
			<data destination_type="f32" />
			<rt_info>
				<attribute name="decompression" version="0" />
			</rt_info>
			<input>
				<port id="0" precision="FP16">
					<dim>1</dim>
				</port>
			</input>
			<output>
				<port id="1" precision="FP32">
					<dim>1</dim>
				</port>
			</output>
		</layer>
		<layer id="180" name="p2o.LeakyRelu.14" type="PReLU" version="opset1">
			<input>
				<port id="0" precision="FP32">
					<dim>-1</dim>
					<dim>32</dim>
					<dim>-1</dim>
					<dim>-1</dim>
				</port>
				<port id="1" precision="FP32">
					<dim>1</dim>
				</port>
			</input>
			<output>
				<port id="2" precision="FP32" names="leaky_relu_14.tmp_0">
					<dim>-1</dim>
					<dim>32</dim>
					<dim>-1</dim>
					<dim>-1</dim>
				</port>
			</output>
		</layer>
		<layer id="181" name="p2o.Concat.28" type="Concat" version="opset1">
			<data axis="1" />
			<input>
				<port id="0" precision="FP32">
					<dim>-1</dim>
					<dim>64</dim>
					<dim>-1</dim>
					<dim>-1</dim>
				</port>
				<port id="1" precision="FP32">
					<dim>-1</dim>
					<dim>32</dim>
					<dim>-1</dim>
					<dim>-1</dim>
				</port>
				<port id="2" precision="FP32">
					<dim>-1</dim>
					<dim>32</dim>
					<dim>-1</dim>
					<dim>-1</dim>
				</port>
				<port id="3" precision="FP32">
					<dim>-1</dim>
					<dim>32</dim>
					<dim>-1</dim>
					<dim>-1</dim>
				</port>
			</input>
			<output>
				<port id="4" precision="FP32" names="p2o.Concat.29">
					<dim>-1</dim>
					<dim>160</dim>
					<dim>-1</dim>
					<dim>-1</dim>
				</port>
			</output>
		</layer>
		<layer id="182" name="conv2d_19.w_0_compressed" type="Const" version="opset1">
			<data element_type="f16" shape="32, 160, 3, 3" offset="1608514" size="92160" />
			<output>
				<port id="0" precision="FP16" names="conv2d_19.w_0">
					<dim>32</dim>
					<dim>160</dim>
					<dim>3</dim>
					<dim>3</dim>
				</port>
			</output>
		</layer>
		<layer id="183" name="conv2d_19.w_0" type="Convert" version="opset1">
			<data destination_type="f32" />
			<rt_info>
				<attribute name="decompression" version="0" />
			</rt_info>
			<input>
				<port id="0" precision="FP16">
					<dim>32</dim>
					<dim>160</dim>
					<dim>3</dim>
					<dim>3</dim>
				</port>
			</input>
			<output>
				<port id="1" precision="FP32">
					<dim>32</dim>
					<dim>160</dim>
					<dim>3</dim>
					<dim>3</dim>
				</port>
			</output>
		</layer>
		<layer id="184" name="p2o.Conv.19/WithoutBiases" type="Convolution" version="opset1">
			<data strides="1, 1" dilations="1, 1" pads_begin="1, 1" pads_end="1, 1" auto_pad="explicit" />
			<input>
				<port id="0" precision="FP32">
					<dim>-1</dim>
					<dim>160</dim>
					<dim>-1</dim>
					<dim>-1</dim>
				</port>
				<port id="1" precision="FP32">
					<dim>32</dim>
					<dim>160</dim>
					<dim>3</dim>
					<dim>3</dim>
				</port>
			</input>
			<output>
				<port id="2" precision="FP32">
					<dim>-1</dim>
					<dim>32</dim>
					<dim>-1</dim>
					<dim>-1</dim>
				</port>
			</output>
		</layer>
		<layer id="185" name="Reshape_43519_compressed" type="Const" version="opset1">
			<data element_type="f16" shape="1, 32, 1, 1" offset="1700674" size="64" />
			<output>
				<port id="0" precision="FP16">
					<dim>1</dim>
					<dim>32</dim>
					<dim>1</dim>
					<dim>1</dim>
				</port>
			</output>
		</layer>
		<layer id="186" name="Reshape_43519" type="Convert" version="opset1">
			<data destination_type="f32" />
			<rt_info>
				<attribute name="decompression" version="0" />
			</rt_info>
			<input>
				<port id="0" precision="FP16">
					<dim>1</dim>
					<dim>32</dim>
					<dim>1</dim>
					<dim>1</dim>
				</port>
			</input>
			<output>
				<port id="1" precision="FP32">
					<dim>1</dim>
					<dim>32</dim>
					<dim>1</dim>
					<dim>1</dim>
				</port>
			</output>
		</layer>
		<layer id="187" name="p2o.Conv.19" type="Add" version="opset1">
			<data auto_broadcast="numpy" />
			<input>
				<port id="0" precision="FP32">
					<dim>-1</dim>
					<dim>32</dim>
					<dim>-1</dim>
					<dim>-1</dim>
				</port>
				<port id="1" precision="FP32">
					<dim>1</dim>
					<dim>32</dim>
					<dim>1</dim>
					<dim>1</dim>
				</port>
			</input>
			<output>
				<port id="2" precision="FP32" names="conv2d_19.tmp_0">
					<dim>-1</dim>
					<dim>32</dim>
					<dim>-1</dim>
					<dim>-1</dim>
				</port>
			</output>
		</layer>
		<layer id="188" name="Constant_43523_compressed" type="Const" version="opset1">
			<data element_type="f16" shape="1" offset="40512" size="2" />
			<output>
				<port id="0" precision="FP16">
					<dim>1</dim>
				</port>
			</output>
		</layer>
		<layer id="189" name="Constant_43523" type="Convert" version="opset1">
			<data destination_type="f32" />
			<rt_info>
				<attribute name="decompression" version="0" />
			</rt_info>
			<input>
				<port id="0" precision="FP16">
					<dim>1</dim>
				</port>
			</input>
			<output>
				<port id="1" precision="FP32">
					<dim>1</dim>
				</port>
			</output>
		</layer>
		<layer id="190" name="p2o.LeakyRelu.15" type="PReLU" version="opset1">
			<input>
				<port id="0" precision="FP32">
					<dim>-1</dim>
					<dim>32</dim>
					<dim>-1</dim>
					<dim>-1</dim>
				</port>
				<port id="1" precision="FP32">
					<dim>1</dim>
				</port>
			</input>
			<output>
				<port id="2" precision="FP32" names="leaky_relu_15.tmp_0">
					<dim>-1</dim>
					<dim>32</dim>
					<dim>-1</dim>
					<dim>-1</dim>
				</port>
			</output>
		</layer>
		<layer id="191" name="p2o.Concat.30" type="Concat" version="opset1">
			<data axis="1" />
			<input>
				<port id="0" precision="FP32">
					<dim>-1</dim>
					<dim>64</dim>
					<dim>-1</dim>
					<dim>-1</dim>
				</port>
				<port id="1" precision="FP32">
					<dim>-1</dim>
					<dim>32</dim>
					<dim>-1</dim>
					<dim>-1</dim>
				</port>
				<port id="2" precision="FP32">
					<dim>-1</dim>
					<dim>32</dim>
					<dim>-1</dim>
					<dim>-1</dim>
				</port>
				<port id="3" precision="FP32">
					<dim>-1</dim>
					<dim>32</dim>
					<dim>-1</dim>
					<dim>-1</dim>
				</port>
				<port id="4" precision="FP32">
					<dim>-1</dim>
					<dim>32</dim>
					<dim>-1</dim>
					<dim>-1</dim>
				</port>
			</input>
			<output>
				<port id="5" precision="FP32" names="p2o.Concat.31">
					<dim>-1</dim>
					<dim>192</dim>
					<dim>-1</dim>
					<dim>-1</dim>
				</port>
			</output>
		</layer>
		<layer id="192" name="Multiply_58015_compressed" type="Const" version="opset1">
			<data element_type="f16" shape="64, 192, 3, 3" offset="1700738" size="221184" />
			<output>
				<port id="0" precision="FP16">
					<dim>64</dim>
					<dim>192</dim>
					<dim>3</dim>
					<dim>3</dim>
				</port>
			</output>
		</layer>
		<layer id="193" name="Multiply_58015" type="Convert" version="opset1">
			<data destination_type="f32" />
			<rt_info>
				<attribute name="decompression" version="0" />
			</rt_info>
			<input>
				<port id="0" precision="FP16">
					<dim>64</dim>
					<dim>192</dim>
					<dim>3</dim>
					<dim>3</dim>
				</port>
			</input>
			<output>
				<port id="1" precision="FP32">
					<dim>64</dim>
					<dim>192</dim>
					<dim>3</dim>
					<dim>3</dim>
				</port>
			</output>
		</layer>
		<layer id="194" name="Multiply_57745" type="Convolution" version="opset1">
			<data strides="1, 1" dilations="1, 1" pads_begin="1, 1" pads_end="1, 1" auto_pad="explicit" />
			<input>
				<port id="0" precision="FP32">
					<dim>-1</dim>
					<dim>192</dim>
					<dim>-1</dim>
					<dim>-1</dim>
				</port>
				<port id="1" precision="FP32">
					<dim>64</dim>
					<dim>192</dim>
					<dim>3</dim>
					<dim>3</dim>
				</port>
			</input>
			<output>
				<port id="2" precision="FP32">
					<dim>-1</dim>
					<dim>64</dim>
					<dim>-1</dim>
					<dim>-1</dim>
				</port>
			</output>
		</layer>
		<layer id="195" name="Constant_57747_compressed" type="Const" version="opset1">
			<data element_type="f16" shape="1, 64, 1, 1" offset="1921922" size="128" />
			<output>
				<port id="0" precision="FP16">
					<dim>1</dim>
					<dim>64</dim>
					<dim>1</dim>
					<dim>1</dim>
				</port>
			</output>
		</layer>
		<layer id="196" name="Constant_57747" type="Convert" version="opset1">
			<data destination_type="f32" />
			<rt_info>
				<attribute name="decompression" version="0" />
			</rt_info>
			<input>
				<port id="0" precision="FP16">
					<dim>1</dim>
					<dim>64</dim>
					<dim>1</dim>
					<dim>1</dim>
				</port>
			</input>
			<output>
				<port id="1" precision="FP32">
					<dim>1</dim>
					<dim>64</dim>
					<dim>1</dim>
					<dim>1</dim>
				</port>
			</output>
		</layer>
		<layer id="197" name="p2o.Mul.8" type="Add" version="opset1">
			<data auto_broadcast="numpy" />
			<input>
				<port id="0" precision="FP32">
					<dim>-1</dim>
					<dim>64</dim>
					<dim>-1</dim>
					<dim>-1</dim>
				</port>
				<port id="1" precision="FP32">
					<dim>1</dim>
					<dim>64</dim>
					<dim>1</dim>
					<dim>1</dim>
				</port>
			</input>
			<output>
				<port id="2" precision="FP32" names="p2o.Mul.9">
					<dim>-1</dim>
					<dim>64</dim>
					<dim>-1</dim>
					<dim>-1</dim>
				</port>
			</output>
		</layer>
		<layer id="198" name="p2o.Add.50" type="Add" version="opset1">
			<data auto_broadcast="numpy" />
			<input>
				<port id="0" precision="FP32">
					<dim>-1</dim>
					<dim>64</dim>
					<dim>-1</dim>
					<dim>-1</dim>
				</port>
				<port id="1" precision="FP32">
					<dim>-1</dim>
					<dim>64</dim>
					<dim>-1</dim>
					<dim>-1</dim>
				</port>
			</input>
			<output>
				<port id="2" precision="FP32" names="p2o.Add.51">
					<dim>-1</dim>
					<dim>64</dim>
					<dim>-1</dim>
					<dim>-1</dim>
				</port>
			</output>
		</layer>
		<layer id="199" name="conv2d_21.w_0_compressed" type="Const" version="opset1">
			<data element_type="f16" shape="32, 64, 3, 3" offset="1922050" size="36864" />
			<output>
				<port id="0" precision="FP16" names="conv2d_21.w_0">
					<dim>32</dim>
					<dim>64</dim>
					<dim>3</dim>
					<dim>3</dim>
				</port>
			</output>
		</layer>
		<layer id="200" name="conv2d_21.w_0" type="Convert" version="opset1">
			<data destination_type="f32" />
			<rt_info>
				<attribute name="decompression" version="0" />
			</rt_info>
			<input>
				<port id="0" precision="FP16">
					<dim>32</dim>
					<dim>64</dim>
					<dim>3</dim>
					<dim>3</dim>
				</port>
			</input>
			<output>
				<port id="1" precision="FP32">
					<dim>32</dim>
					<dim>64</dim>
					<dim>3</dim>
					<dim>3</dim>
				</port>
			</output>
		</layer>
		<layer id="201" name="p2o.Conv.21/WithoutBiases" type="Convolution" version="opset1">
			<data strides="1, 1" dilations="1, 1" pads_begin="1, 1" pads_end="1, 1" auto_pad="explicit" />
			<input>
				<port id="0" precision="FP32">
					<dim>-1</dim>
					<dim>64</dim>
					<dim>-1</dim>
					<dim>-1</dim>
				</port>
				<port id="1" precision="FP32">
					<dim>32</dim>
					<dim>64</dim>
					<dim>3</dim>
					<dim>3</dim>
				</port>
			</input>
			<output>
				<port id="2" precision="FP32">
					<dim>-1</dim>
					<dim>32</dim>
					<dim>-1</dim>
					<dim>-1</dim>
				</port>
			</output>
		</layer>
		<layer id="202" name="Reshape_43557_compressed" type="Const" version="opset1">
			<data element_type="f16" shape="1, 32, 1, 1" offset="1958914" size="64" />
			<output>
				<port id="0" precision="FP16">
					<dim>1</dim>
					<dim>32</dim>
					<dim>1</dim>
					<dim>1</dim>
				</port>
			</output>
		</layer>
		<layer id="203" name="Reshape_43557" type="Convert" version="opset1">
			<data destination_type="f32" />
			<rt_info>
				<attribute name="decompression" version="0" />
			</rt_info>
			<input>
				<port id="0" precision="FP16">
					<dim>1</dim>
					<dim>32</dim>
					<dim>1</dim>
					<dim>1</dim>
				</port>
			</input>
			<output>
				<port id="1" precision="FP32">
					<dim>1</dim>
					<dim>32</dim>
					<dim>1</dim>
					<dim>1</dim>
				</port>
			</output>
		</layer>
		<layer id="204" name="p2o.Conv.21" type="Add" version="opset1">
			<data auto_broadcast="numpy" />
			<input>
				<port id="0" precision="FP32">
					<dim>-1</dim>
					<dim>32</dim>
					<dim>-1</dim>
					<dim>-1</dim>
				</port>
				<port id="1" precision="FP32">
					<dim>1</dim>
					<dim>32</dim>
					<dim>1</dim>
					<dim>1</dim>
				</port>
			</input>
			<output>
				<port id="2" precision="FP32" names="conv2d_21.tmp_0">
					<dim>-1</dim>
					<dim>32</dim>
					<dim>-1</dim>
					<dim>-1</dim>
				</port>
			</output>
		</layer>
		<layer id="205" name="Constant_43561_compressed" type="Const" version="opset1">
			<data element_type="f16" shape="1" offset="40512" size="2" />
			<output>
				<port id="0" precision="FP16">
					<dim>1</dim>
				</port>
			</output>
		</layer>
		<layer id="206" name="Constant_43561" type="Convert" version="opset1">
			<data destination_type="f32" />
			<rt_info>
				<attribute name="decompression" version="0" />
			</rt_info>
			<input>
				<port id="0" precision="FP16">
					<dim>1</dim>
				</port>
			</input>
			<output>
				<port id="1" precision="FP32">
					<dim>1</dim>
				</port>
			</output>
		</layer>
		<layer id="207" name="p2o.LeakyRelu.16" type="PReLU" version="opset1">
			<input>
				<port id="0" precision="FP32">
					<dim>-1</dim>
					<dim>32</dim>
					<dim>-1</dim>
					<dim>-1</dim>
				</port>
				<port id="1" precision="FP32">
					<dim>1</dim>
				</port>
			</input>
			<output>
				<port id="2" precision="FP32" names="leaky_relu_16.tmp_0">
					<dim>-1</dim>
					<dim>32</dim>
					<dim>-1</dim>
					<dim>-1</dim>
				</port>
			</output>
		</layer>
		<layer id="208" name="p2o.Concat.32" type="Concat" version="opset1">
			<data axis="1" />
			<input>
				<port id="0" precision="FP32">
					<dim>-1</dim>
					<dim>64</dim>
					<dim>-1</dim>
					<dim>-1</dim>
				</port>
				<port id="1" precision="FP32">
					<dim>-1</dim>
					<dim>32</dim>
					<dim>-1</dim>
					<dim>-1</dim>
				</port>
			</input>
			<output>
				<port id="2" precision="FP32" names="p2o.Concat.33">
					<dim>-1</dim>
					<dim>96</dim>
					<dim>-1</dim>
					<dim>-1</dim>
				</port>
			</output>
		</layer>
		<layer id="209" name="conv2d_22.w_0_compressed" type="Const" version="opset1">
			<data element_type="f16" shape="32, 96, 3, 3" offset="1958978" size="55296" />
			<output>
				<port id="0" precision="FP16" names="conv2d_22.w_0">
					<dim>32</dim>
					<dim>96</dim>
					<dim>3</dim>
					<dim>3</dim>
				</port>
			</output>
		</layer>
		<layer id="210" name="conv2d_22.w_0" type="Convert" version="opset1">
			<data destination_type="f32" />
			<rt_info>
				<attribute name="decompression" version="0" />
			</rt_info>
			<input>
				<port id="0" precision="FP16">
					<dim>32</dim>
					<dim>96</dim>
					<dim>3</dim>
					<dim>3</dim>
				</port>
			</input>
			<output>
				<port id="1" precision="FP32">
					<dim>32</dim>
					<dim>96</dim>
					<dim>3</dim>
					<dim>3</dim>
				</port>
			</output>
		</layer>
		<layer id="211" name="p2o.Conv.22/WithoutBiases" type="Convolution" version="opset1">
			<data strides="1, 1" dilations="1, 1" pads_begin="1, 1" pads_end="1, 1" auto_pad="explicit" />
			<input>
				<port id="0" precision="FP32">
					<dim>-1</dim>
					<dim>96</dim>
					<dim>-1</dim>
					<dim>-1</dim>
				</port>
				<port id="1" precision="FP32">
					<dim>32</dim>
					<dim>96</dim>
					<dim>3</dim>
					<dim>3</dim>
				</port>
			</input>
			<output>
				<port id="2" precision="FP32">
					<dim>-1</dim>
					<dim>32</dim>
					<dim>-1</dim>
					<dim>-1</dim>
				</port>
			</output>
		</layer>
		<layer id="212" name="Reshape_43576_compressed" type="Const" version="opset1">
			<data element_type="f16" shape="1, 32, 1, 1" offset="2014274" size="64" />
			<output>
				<port id="0" precision="FP16">
					<dim>1</dim>
					<dim>32</dim>
					<dim>1</dim>
					<dim>1</dim>
				</port>
			</output>
		</layer>
		<layer id="213" name="Reshape_43576" type="Convert" version="opset1">
			<data destination_type="f32" />
			<rt_info>
				<attribute name="decompression" version="0" />
			</rt_info>
			<input>
				<port id="0" precision="FP16">
					<dim>1</dim>
					<dim>32</dim>
					<dim>1</dim>
					<dim>1</dim>
				</port>
			</input>
			<output>
				<port id="1" precision="FP32">
					<dim>1</dim>
					<dim>32</dim>
					<dim>1</dim>
					<dim>1</dim>
				</port>
			</output>
		</layer>
		<layer id="214" name="p2o.Conv.22" type="Add" version="opset1">
			<data auto_broadcast="numpy" />
			<input>
				<port id="0" precision="FP32">
					<dim>-1</dim>
					<dim>32</dim>
					<dim>-1</dim>
					<dim>-1</dim>
				</port>
				<port id="1" precision="FP32">
					<dim>1</dim>
					<dim>32</dim>
					<dim>1</dim>
					<dim>1</dim>
				</port>
			</input>
			<output>
				<port id="2" precision="FP32" names="conv2d_22.tmp_0">
					<dim>-1</dim>
					<dim>32</dim>
					<dim>-1</dim>
					<dim>-1</dim>
				</port>
			</output>
		</layer>
		<layer id="215" name="Constant_43580_compressed" type="Const" version="opset1">
			<data element_type="f16" shape="1" offset="40512" size="2" />
			<output>
				<port id="0" precision="FP16">
					<dim>1</dim>
				</port>
			</output>
		</layer>
		<layer id="216" name="Constant_43580" type="Convert" version="opset1">
			<data destination_type="f32" />
			<rt_info>
				<attribute name="decompression" version="0" />
			</rt_info>
			<input>
				<port id="0" precision="FP16">
					<dim>1</dim>
				</port>
			</input>
			<output>
				<port id="1" precision="FP32">
					<dim>1</dim>
				</port>
			</output>
		</layer>
		<layer id="217" name="p2o.LeakyRelu.17" type="PReLU" version="opset1">
			<input>
				<port id="0" precision="FP32">
					<dim>-1</dim>
					<dim>32</dim>
					<dim>-1</dim>
					<dim>-1</dim>
				</port>
				<port id="1" precision="FP32">
					<dim>1</dim>
				</port>
			</input>
			<output>
				<port id="2" precision="FP32" names="leaky_relu_17.tmp_0">
					<dim>-1</dim>
					<dim>32</dim>
					<dim>-1</dim>
					<dim>-1</dim>
				</port>
			</output>
		</layer>
		<layer id="218" name="p2o.Concat.34" type="Concat" version="opset1">
			<data axis="1" />
			<input>
				<port id="0" precision="FP32">
					<dim>-1</dim>
					<dim>64</dim>
					<dim>-1</dim>
					<dim>-1</dim>
				</port>
				<port id="1" precision="FP32">
					<dim>-1</dim>
					<dim>32</dim>
					<dim>-1</dim>
					<dim>-1</dim>
				</port>
				<port id="2" precision="FP32">
					<dim>-1</dim>
					<dim>32</dim>
					<dim>-1</dim>
					<dim>-1</dim>
				</port>
			</input>
			<output>
				<port id="3" precision="FP32" names="p2o.Concat.35">
					<dim>-1</dim>
					<dim>128</dim>
					<dim>-1</dim>
					<dim>-1</dim>
				</port>
			</output>
		</layer>
		<layer id="219" name="conv2d_23.w_0_compressed" type="Const" version="opset1">
			<data element_type="f16" shape="32, 128, 3, 3" offset="2014338" size="73728" />
			<output>
				<port id="0" precision="FP16" names="conv2d_23.w_0">
					<dim>32</dim>
					<dim>128</dim>
					<dim>3</dim>
					<dim>3</dim>
				</port>
			</output>
		</layer>
		<layer id="220" name="conv2d_23.w_0" type="Convert" version="opset1">
			<data destination_type="f32" />
			<rt_info>
				<attribute name="decompression" version="0" />
			</rt_info>
			<input>
				<port id="0" precision="FP16">
					<dim>32</dim>
					<dim>128</dim>
					<dim>3</dim>
					<dim>3</dim>
				</port>
			</input>
			<output>
				<port id="1" precision="FP32">
					<dim>32</dim>
					<dim>128</dim>
					<dim>3</dim>
					<dim>3</dim>
				</port>
			</output>
		</layer>
		<layer id="221" name="p2o.Conv.23/WithoutBiases" type="Convolution" version="opset1">
			<data strides="1, 1" dilations="1, 1" pads_begin="1, 1" pads_end="1, 1" auto_pad="explicit" />
			<input>
				<port id="0" precision="FP32">
					<dim>-1</dim>
					<dim>128</dim>
					<dim>-1</dim>
					<dim>-1</dim>
				</port>
				<port id="1" precision="FP32">
					<dim>32</dim>
					<dim>128</dim>
					<dim>3</dim>
					<dim>3</dim>
				</port>
			</input>
			<output>
				<port id="2" precision="FP32">
					<dim>-1</dim>
					<dim>32</dim>
					<dim>-1</dim>
					<dim>-1</dim>
				</port>
			</output>
		</layer>
		<layer id="222" name="Reshape_43595_compressed" type="Const" version="opset1">
			<data element_type="f16" shape="1, 32, 1, 1" offset="2088066" size="64" />
			<output>
				<port id="0" precision="FP16">
					<dim>1</dim>
					<dim>32</dim>
					<dim>1</dim>
					<dim>1</dim>
				</port>
			</output>
		</layer>
		<layer id="223" name="Reshape_43595" type="Convert" version="opset1">
			<data destination_type="f32" />
			<rt_info>
				<attribute name="decompression" version="0" />
			</rt_info>
			<input>
				<port id="0" precision="FP16">
					<dim>1</dim>
					<dim>32</dim>
					<dim>1</dim>
					<dim>1</dim>
				</port>
			</input>
			<output>
				<port id="1" precision="FP32">
					<dim>1</dim>
					<dim>32</dim>
					<dim>1</dim>
					<dim>1</dim>
				</port>
			</output>
		</layer>
		<layer id="224" name="p2o.Conv.23" type="Add" version="opset1">
			<data auto_broadcast="numpy" />
			<input>
				<port id="0" precision="FP32">
					<dim>-1</dim>
					<dim>32</dim>
					<dim>-1</dim>
					<dim>-1</dim>
				</port>
				<port id="1" precision="FP32">
					<dim>1</dim>
					<dim>32</dim>
					<dim>1</dim>
					<dim>1</dim>
				</port>
			</input>
			<output>
				<port id="2" precision="FP32" names="conv2d_23.tmp_0">
					<dim>-1</dim>
					<dim>32</dim>
					<dim>-1</dim>
					<dim>-1</dim>
				</port>
			</output>
		</layer>
		<layer id="225" name="Constant_43599_compressed" type="Const" version="opset1">
			<data element_type="f16" shape="1" offset="40512" size="2" />
			<output>
				<port id="0" precision="FP16">
					<dim>1</dim>
				</port>
			</output>
		</layer>
		<layer id="226" name="Constant_43599" type="Convert" version="opset1">
			<data destination_type="f32" />
			<rt_info>
				<attribute name="decompression" version="0" />
			</rt_info>
			<input>
				<port id="0" precision="FP16">
					<dim>1</dim>
				</port>
			</input>
			<output>
				<port id="1" precision="FP32">
					<dim>1</dim>
				</port>
			</output>
		</layer>
		<layer id="227" name="p2o.LeakyRelu.18" type="PReLU" version="opset1">
			<input>
				<port id="0" precision="FP32">
					<dim>-1</dim>
					<dim>32</dim>
					<dim>-1</dim>
					<dim>-1</dim>
				</port>
				<port id="1" precision="FP32">
					<dim>1</dim>
				</port>
			</input>
			<output>
				<port id="2" precision="FP32" names="leaky_relu_18.tmp_0">
					<dim>-1</dim>
					<dim>32</dim>
					<dim>-1</dim>
					<dim>-1</dim>
				</port>
			</output>
		</layer>
		<layer id="228" name="p2o.Concat.36" type="Concat" version="opset1">
			<data axis="1" />
			<input>
				<port id="0" precision="FP32">
					<dim>-1</dim>
					<dim>64</dim>
					<dim>-1</dim>
					<dim>-1</dim>
				</port>
				<port id="1" precision="FP32">
					<dim>-1</dim>
					<dim>32</dim>
					<dim>-1</dim>
					<dim>-1</dim>
				</port>
				<port id="2" precision="FP32">
					<dim>-1</dim>
					<dim>32</dim>
					<dim>-1</dim>
					<dim>-1</dim>
				</port>
				<port id="3" precision="FP32">
					<dim>-1</dim>
					<dim>32</dim>
					<dim>-1</dim>
					<dim>-1</dim>
				</port>
			</input>
			<output>
				<port id="4" precision="FP32" names="p2o.Concat.37">
					<dim>-1</dim>
					<dim>160</dim>
					<dim>-1</dim>
					<dim>-1</dim>
				</port>
			</output>
		</layer>
		<layer id="229" name="conv2d_24.w_0_compressed" type="Const" version="opset1">
			<data element_type="f16" shape="32, 160, 3, 3" offset="2088130" size="92160" />
			<output>
				<port id="0" precision="FP16" names="conv2d_24.w_0">
					<dim>32</dim>
					<dim>160</dim>
					<dim>3</dim>
					<dim>3</dim>
				</port>
			</output>
		</layer>
		<layer id="230" name="conv2d_24.w_0" type="Convert" version="opset1">
			<data destination_type="f32" />
			<rt_info>
				<attribute name="decompression" version="0" />
			</rt_info>
			<input>
				<port id="0" precision="FP16">
					<dim>32</dim>
					<dim>160</dim>
					<dim>3</dim>
					<dim>3</dim>
				</port>
			</input>
			<output>
				<port id="1" precision="FP32">
					<dim>32</dim>
					<dim>160</dim>
					<dim>3</dim>
					<dim>3</dim>
				</port>
			</output>
		</layer>
		<layer id="231" name="p2o.Conv.24/WithoutBiases" type="Convolution" version="opset1">
			<data strides="1, 1" dilations="1, 1" pads_begin="1, 1" pads_end="1, 1" auto_pad="explicit" />
			<input>
				<port id="0" precision="FP32">
					<dim>-1</dim>
					<dim>160</dim>
					<dim>-1</dim>
					<dim>-1</dim>
				</port>
				<port id="1" precision="FP32">
					<dim>32</dim>
					<dim>160</dim>
					<dim>3</dim>
					<dim>3</dim>
				</port>
			</input>
			<output>
				<port id="2" precision="FP32">
					<dim>-1</dim>
					<dim>32</dim>
					<dim>-1</dim>
					<dim>-1</dim>
				</port>
			</output>
		</layer>
		<layer id="232" name="Reshape_43614_compressed" type="Const" version="opset1">
			<data element_type="f16" shape="1, 32, 1, 1" offset="2180290" size="64" />
			<output>
				<port id="0" precision="FP16">
					<dim>1</dim>
					<dim>32</dim>
					<dim>1</dim>
					<dim>1</dim>
				</port>
			</output>
		</layer>
		<layer id="233" name="Reshape_43614" type="Convert" version="opset1">
			<data destination_type="f32" />
			<rt_info>
				<attribute name="decompression" version="0" />
			</rt_info>
			<input>
				<port id="0" precision="FP16">
					<dim>1</dim>
					<dim>32</dim>
					<dim>1</dim>
					<dim>1</dim>
				</port>
			</input>
			<output>
				<port id="1" precision="FP32">
					<dim>1</dim>
					<dim>32</dim>
					<dim>1</dim>
					<dim>1</dim>
				</port>
			</output>
		</layer>
		<layer id="234" name="p2o.Conv.24" type="Add" version="opset1">
			<data auto_broadcast="numpy" />
			<input>
				<port id="0" precision="FP32">
					<dim>-1</dim>
					<dim>32</dim>
					<dim>-1</dim>
					<dim>-1</dim>
				</port>
				<port id="1" precision="FP32">
					<dim>1</dim>
					<dim>32</dim>
					<dim>1</dim>
					<dim>1</dim>
				</port>
			</input>
			<output>
				<port id="2" precision="FP32" names="conv2d_24.tmp_0">
					<dim>-1</dim>
					<dim>32</dim>
					<dim>-1</dim>
					<dim>-1</dim>
				</port>
			</output>
		</layer>
		<layer id="235" name="Constant_43618_compressed" type="Const" version="opset1">
			<data element_type="f16" shape="1" offset="40512" size="2" />
			<output>
				<port id="0" precision="FP16">
					<dim>1</dim>
				</port>
			</output>
		</layer>
		<layer id="236" name="Constant_43618" type="Convert" version="opset1">
			<data destination_type="f32" />
			<rt_info>
				<attribute name="decompression" version="0" />
			</rt_info>
			<input>
				<port id="0" precision="FP16">
					<dim>1</dim>
				</port>
			</input>
			<output>
				<port id="1" precision="FP32">
					<dim>1</dim>
				</port>
			</output>
		</layer>
		<layer id="237" name="p2o.LeakyRelu.19" type="PReLU" version="opset1">
			<input>
				<port id="0" precision="FP32">
					<dim>-1</dim>
					<dim>32</dim>
					<dim>-1</dim>
					<dim>-1</dim>
				</port>
				<port id="1" precision="FP32">
					<dim>1</dim>
				</port>
			</input>
			<output>
				<port id="2" precision="FP32" names="leaky_relu_19.tmp_0">
					<dim>-1</dim>
					<dim>32</dim>
					<dim>-1</dim>
					<dim>-1</dim>
				</port>
			</output>
		</layer>
		<layer id="238" name="p2o.Concat.38" type="Concat" version="opset1">
			<data axis="1" />
			<input>
				<port id="0" precision="FP32">
					<dim>-1</dim>
					<dim>64</dim>
					<dim>-1</dim>
					<dim>-1</dim>
				</port>
				<port id="1" precision="FP32">
					<dim>-1</dim>
					<dim>32</dim>
					<dim>-1</dim>
					<dim>-1</dim>
				</port>
				<port id="2" precision="FP32">
					<dim>-1</dim>
					<dim>32</dim>
					<dim>-1</dim>
					<dim>-1</dim>
				</port>
				<port id="3" precision="FP32">
					<dim>-1</dim>
					<dim>32</dim>
					<dim>-1</dim>
					<dim>-1</dim>
				</port>
				<port id="4" precision="FP32">
					<dim>-1</dim>
					<dim>32</dim>
					<dim>-1</dim>
					<dim>-1</dim>
				</port>
			</input>
			<output>
				<port id="5" precision="FP32" names="p2o.Concat.39">
					<dim>-1</dim>
					<dim>192</dim>
					<dim>-1</dim>
					<dim>-1</dim>
				</port>
			</output>
		</layer>
		<layer id="239" name="Multiply_58017_compressed" type="Const" version="opset1">
			<data element_type="f16" shape="64, 192, 3, 3" offset="2180354" size="221184" />
			<output>
				<port id="0" precision="FP16">
					<dim>64</dim>
					<dim>192</dim>
					<dim>3</dim>
					<dim>3</dim>
				</port>
			</output>
		</layer>
		<layer id="240" name="Multiply_58017" type="Convert" version="opset1">
			<data destination_type="f32" />
			<rt_info>
				<attribute name="decompression" version="0" />
			</rt_info>
			<input>
				<port id="0" precision="FP16">
					<dim>64</dim>
					<dim>192</dim>
					<dim>3</dim>
					<dim>3</dim>
				</port>
			</input>
			<output>
				<port id="1" precision="FP32">
					<dim>64</dim>
					<dim>192</dim>
					<dim>3</dim>
					<dim>3</dim>
				</port>
			</output>
		</layer>
		<layer id="241" name="Multiply_57749" type="Convolution" version="opset1">
			<data strides="1, 1" dilations="1, 1" pads_begin="1, 1" pads_end="1, 1" auto_pad="explicit" />
			<input>
				<port id="0" precision="FP32">
					<dim>-1</dim>
					<dim>192</dim>
					<dim>-1</dim>
					<dim>-1</dim>
				</port>
				<port id="1" precision="FP32">
					<dim>64</dim>
					<dim>192</dim>
					<dim>3</dim>
					<dim>3</dim>
				</port>
			</input>
			<output>
				<port id="2" precision="FP32">
					<dim>-1</dim>
					<dim>64</dim>
					<dim>-1</dim>
					<dim>-1</dim>
				</port>
			</output>
		</layer>
		<layer id="242" name="Constant_57751_compressed" type="Const" version="opset1">
			<data element_type="f16" shape="1, 64, 1, 1" offset="2401538" size="128" />
			<output>
				<port id="0" precision="FP16">
					<dim>1</dim>
					<dim>64</dim>
					<dim>1</dim>
					<dim>1</dim>
				</port>
			</output>
		</layer>
		<layer id="243" name="Constant_57751" type="Convert" version="opset1">
			<data destination_type="f32" />
			<rt_info>
				<attribute name="decompression" version="0" />
			</rt_info>
			<input>
				<port id="0" precision="FP16">
					<dim>1</dim>
					<dim>64</dim>
					<dim>1</dim>
					<dim>1</dim>
				</port>
			</input>
			<output>
				<port id="1" precision="FP32">
					<dim>1</dim>
					<dim>64</dim>
					<dim>1</dim>
					<dim>1</dim>
				</port>
			</output>
		</layer>
		<layer id="244" name="p2o.Mul.10" type="Add" version="opset1">
			<data auto_broadcast="numpy" />
			<input>
				<port id="0" precision="FP32">
					<dim>-1</dim>
					<dim>64</dim>
					<dim>-1</dim>
					<dim>-1</dim>
				</port>
				<port id="1" precision="FP32">
					<dim>1</dim>
					<dim>64</dim>
					<dim>1</dim>
					<dim>1</dim>
				</port>
			</input>
			<output>
				<port id="2" precision="FP32" names="p2o.Mul.11">
					<dim>-1</dim>
					<dim>64</dim>
					<dim>-1</dim>
					<dim>-1</dim>
				</port>
			</output>
		</layer>
		<layer id="245" name="p2o.Add.62" type="Add" version="opset1">
			<data auto_broadcast="numpy" />
			<input>
				<port id="0" precision="FP32">
					<dim>-1</dim>
					<dim>64</dim>
					<dim>-1</dim>
					<dim>-1</dim>
				</port>
				<port id="1" precision="FP32">
					<dim>-1</dim>
					<dim>64</dim>
					<dim>-1</dim>
					<dim>-1</dim>
				</port>
			</input>
			<output>
				<port id="2" precision="FP32" names="p2o.Add.63">
					<dim>-1</dim>
					<dim>64</dim>
					<dim>-1</dim>
					<dim>-1</dim>
				</port>
			</output>
		</layer>
		<layer id="246" name="conv2d_26.w_0_compressed" type="Const" version="opset1">
			<data element_type="f16" shape="32, 64, 3, 3" offset="2401666" size="36864" />
			<output>
				<port id="0" precision="FP16" names="conv2d_26.w_0">
					<dim>32</dim>
					<dim>64</dim>
					<dim>3</dim>
					<dim>3</dim>
				</port>
			</output>
		</layer>
		<layer id="247" name="conv2d_26.w_0" type="Convert" version="opset1">
			<data destination_type="f32" />
			<rt_info>
				<attribute name="decompression" version="0" />
			</rt_info>
			<input>
				<port id="0" precision="FP16">
					<dim>32</dim>
					<dim>64</dim>
					<dim>3</dim>
					<dim>3</dim>
				</port>
			</input>
			<output>
				<port id="1" precision="FP32">
					<dim>32</dim>
					<dim>64</dim>
					<dim>3</dim>
					<dim>3</dim>
				</port>
			</output>
		</layer>
		<layer id="248" name="p2o.Conv.26/WithoutBiases" type="Convolution" version="opset1">
			<data strides="1, 1" dilations="1, 1" pads_begin="1, 1" pads_end="1, 1" auto_pad="explicit" />
			<input>
				<port id="0" precision="FP32">
					<dim>-1</dim>
					<dim>64</dim>
					<dim>-1</dim>
					<dim>-1</dim>
				</port>
				<port id="1" precision="FP32">
					<dim>32</dim>
					<dim>64</dim>
					<dim>3</dim>
					<dim>3</dim>
				</port>
			</input>
			<output>
				<port id="2" precision="FP32">
					<dim>-1</dim>
					<dim>32</dim>
					<dim>-1</dim>
					<dim>-1</dim>
				</port>
			</output>
		</layer>
		<layer id="249" name="Reshape_43652_compressed" type="Const" version="opset1">
			<data element_type="f16" shape="1, 32, 1, 1" offset="2438530" size="64" />
			<output>
				<port id="0" precision="FP16">
					<dim>1</dim>
					<dim>32</dim>
					<dim>1</dim>
					<dim>1</dim>
				</port>
			</output>
		</layer>
		<layer id="250" name="Reshape_43652" type="Convert" version="opset1">
			<data destination_type="f32" />
			<rt_info>
				<attribute name="decompression" version="0" />
			</rt_info>
			<input>
				<port id="0" precision="FP16">
					<dim>1</dim>
					<dim>32</dim>
					<dim>1</dim>
					<dim>1</dim>
				</port>
			</input>
			<output>
				<port id="1" precision="FP32">
					<dim>1</dim>
					<dim>32</dim>
					<dim>1</dim>
					<dim>1</dim>
				</port>
			</output>
		</layer>
		<layer id="251" name="p2o.Conv.26" type="Add" version="opset1">
			<data auto_broadcast="numpy" />
			<input>
				<port id="0" precision="FP32">
					<dim>-1</dim>
					<dim>32</dim>
					<dim>-1</dim>
					<dim>-1</dim>
				</port>
				<port id="1" precision="FP32">
					<dim>1</dim>
					<dim>32</dim>
					<dim>1</dim>
					<dim>1</dim>
				</port>
			</input>
			<output>
				<port id="2" precision="FP32" names="conv2d_26.tmp_0">
					<dim>-1</dim>
					<dim>32</dim>
					<dim>-1</dim>
					<dim>-1</dim>
				</port>
			</output>
		</layer>
		<layer id="252" name="Constant_43656_compressed" type="Const" version="opset1">
			<data element_type="f16" shape="1" offset="40512" size="2" />
			<output>
				<port id="0" precision="FP16">
					<dim>1</dim>
				</port>
			</output>
		</layer>
		<layer id="253" name="Constant_43656" type="Convert" version="opset1">
			<data destination_type="f32" />
			<rt_info>
				<attribute name="decompression" version="0" />
			</rt_info>
			<input>
				<port id="0" precision="FP16">
					<dim>1</dim>
				</port>
			</input>
			<output>
				<port id="1" precision="FP32">
					<dim>1</dim>
				</port>
			</output>
		</layer>
		<layer id="254" name="p2o.LeakyRelu.20" type="PReLU" version="opset1">
			<input>
				<port id="0" precision="FP32">
					<dim>-1</dim>
					<dim>32</dim>
					<dim>-1</dim>
					<dim>-1</dim>
				</port>
				<port id="1" precision="FP32">
					<dim>1</dim>
				</port>
			</input>
			<output>
				<port id="2" precision="FP32" names="leaky_relu_20.tmp_0">
					<dim>-1</dim>
					<dim>32</dim>
					<dim>-1</dim>
					<dim>-1</dim>
				</port>
			</output>
		</layer>
		<layer id="255" name="p2o.Concat.40" type="Concat" version="opset1">
			<data axis="1" />
			<input>
				<port id="0" precision="FP32">
					<dim>-1</dim>
					<dim>64</dim>
					<dim>-1</dim>
					<dim>-1</dim>
				</port>
				<port id="1" precision="FP32">
					<dim>-1</dim>
					<dim>32</dim>
					<dim>-1</dim>
					<dim>-1</dim>
				</port>
			</input>
			<output>
				<port id="2" precision="FP32" names="p2o.Concat.41">
					<dim>-1</dim>
					<dim>96</dim>
					<dim>-1</dim>
					<dim>-1</dim>
				</port>
			</output>
		</layer>
		<layer id="256" name="conv2d_27.w_0_compressed" type="Const" version="opset1">
			<data element_type="f16" shape="32, 96, 3, 3" offset="2438594" size="55296" />
			<output>
				<port id="0" precision="FP16" names="conv2d_27.w_0">
					<dim>32</dim>
					<dim>96</dim>
					<dim>3</dim>
					<dim>3</dim>
				</port>
			</output>
		</layer>
		<layer id="257" name="conv2d_27.w_0" type="Convert" version="opset1">
			<data destination_type="f32" />
			<rt_info>
				<attribute name="decompression" version="0" />
			</rt_info>
			<input>
				<port id="0" precision="FP16">
					<dim>32</dim>
					<dim>96</dim>
					<dim>3</dim>
					<dim>3</dim>
				</port>
			</input>
			<output>
				<port id="1" precision="FP32">
					<dim>32</dim>
					<dim>96</dim>
					<dim>3</dim>
					<dim>3</dim>
				</port>
			</output>
		</layer>
		<layer id="258" name="p2o.Conv.27/WithoutBiases" type="Convolution" version="opset1">
			<data strides="1, 1" dilations="1, 1" pads_begin="1, 1" pads_end="1, 1" auto_pad="explicit" />
			<input>
				<port id="0" precision="FP32">
					<dim>-1</dim>
					<dim>96</dim>
					<dim>-1</dim>
					<dim>-1</dim>
				</port>
				<port id="1" precision="FP32">
					<dim>32</dim>
					<dim>96</dim>
					<dim>3</dim>
					<dim>3</dim>
				</port>
			</input>
			<output>
				<port id="2" precision="FP32">
					<dim>-1</dim>
					<dim>32</dim>
					<dim>-1</dim>
					<dim>-1</dim>
				</port>
			</output>
		</layer>
		<layer id="259" name="Reshape_43671_compressed" type="Const" version="opset1">
			<data element_type="f16" shape="1, 32, 1, 1" offset="2493890" size="64" />
			<output>
				<port id="0" precision="FP16">
					<dim>1</dim>
					<dim>32</dim>
					<dim>1</dim>
					<dim>1</dim>
				</port>
			</output>
		</layer>
		<layer id="260" name="Reshape_43671" type="Convert" version="opset1">
			<data destination_type="f32" />
			<rt_info>
				<attribute name="decompression" version="0" />
			</rt_info>
			<input>
				<port id="0" precision="FP16">
					<dim>1</dim>
					<dim>32</dim>
					<dim>1</dim>
					<dim>1</dim>
				</port>
			</input>
			<output>
				<port id="1" precision="FP32">
					<dim>1</dim>
					<dim>32</dim>
					<dim>1</dim>
					<dim>1</dim>
				</port>
			</output>
		</layer>
		<layer id="261" name="p2o.Conv.27" type="Add" version="opset1">
			<data auto_broadcast="numpy" />
			<input>
				<port id="0" precision="FP32">
					<dim>-1</dim>
					<dim>32</dim>
					<dim>-1</dim>
					<dim>-1</dim>
				</port>
				<port id="1" precision="FP32">
					<dim>1</dim>
					<dim>32</dim>
					<dim>1</dim>
					<dim>1</dim>
				</port>
			</input>
			<output>
				<port id="2" precision="FP32" names="conv2d_27.tmp_0">
					<dim>-1</dim>
					<dim>32</dim>
					<dim>-1</dim>
					<dim>-1</dim>
				</port>
			</output>
		</layer>
		<layer id="262" name="Constant_43675_compressed" type="Const" version="opset1">
			<data element_type="f16" shape="1" offset="40512" size="2" />
			<output>
				<port id="0" precision="FP16">
					<dim>1</dim>
				</port>
			</output>
		</layer>
		<layer id="263" name="Constant_43675" type="Convert" version="opset1">
			<data destination_type="f32" />
			<rt_info>
				<attribute name="decompression" version="0" />
			</rt_info>
			<input>
				<port id="0" precision="FP16">
					<dim>1</dim>
				</port>
			</input>
			<output>
				<port id="1" precision="FP32">
					<dim>1</dim>
				</port>
			</output>
		</layer>
		<layer id="264" name="p2o.LeakyRelu.21" type="PReLU" version="opset1">
			<input>
				<port id="0" precision="FP32">
					<dim>-1</dim>
					<dim>32</dim>
					<dim>-1</dim>
					<dim>-1</dim>
				</port>
				<port id="1" precision="FP32">
					<dim>1</dim>
				</port>
			</input>
			<output>
				<port id="2" precision="FP32" names="leaky_relu_21.tmp_0">
					<dim>-1</dim>
					<dim>32</dim>
					<dim>-1</dim>
					<dim>-1</dim>
				</port>
			</output>
		</layer>
		<layer id="265" name="p2o.Concat.42" type="Concat" version="opset1">
			<data axis="1" />
			<input>
				<port id="0" precision="FP32">
					<dim>-1</dim>
					<dim>64</dim>
					<dim>-1</dim>
					<dim>-1</dim>
				</port>
				<port id="1" precision="FP32">
					<dim>-1</dim>
					<dim>32</dim>
					<dim>-1</dim>
					<dim>-1</dim>
				</port>
				<port id="2" precision="FP32">
					<dim>-1</dim>
					<dim>32</dim>
					<dim>-1</dim>
					<dim>-1</dim>
				</port>
			</input>
			<output>
				<port id="3" precision="FP32" names="p2o.Concat.43">
					<dim>-1</dim>
					<dim>128</dim>
					<dim>-1</dim>
					<dim>-1</dim>
				</port>
			</output>
		</layer>
		<layer id="266" name="conv2d_28.w_0_compressed" type="Const" version="opset1">
			<data element_type="f16" shape="32, 128, 3, 3" offset="2493954" size="73728" />
			<output>
				<port id="0" precision="FP16" names="conv2d_28.w_0">
					<dim>32</dim>
					<dim>128</dim>
					<dim>3</dim>
					<dim>3</dim>
				</port>
			</output>
		</layer>
		<layer id="267" name="conv2d_28.w_0" type="Convert" version="opset1">
			<data destination_type="f32" />
			<rt_info>
				<attribute name="decompression" version="0" />
			</rt_info>
			<input>
				<port id="0" precision="FP16">
					<dim>32</dim>
					<dim>128</dim>
					<dim>3</dim>
					<dim>3</dim>
				</port>
			</input>
			<output>
				<port id="1" precision="FP32">
					<dim>32</dim>
					<dim>128</dim>
					<dim>3</dim>
					<dim>3</dim>
				</port>
			</output>
		</layer>
		<layer id="268" name="p2o.Conv.28/WithoutBiases" type="Convolution" version="opset1">
			<data strides="1, 1" dilations="1, 1" pads_begin="1, 1" pads_end="1, 1" auto_pad="explicit" />
			<input>
				<port id="0" precision="FP32">
					<dim>-1</dim>
					<dim>128</dim>
					<dim>-1</dim>
					<dim>-1</dim>
				</port>
				<port id="1" precision="FP32">
					<dim>32</dim>
					<dim>128</dim>
					<dim>3</dim>
					<dim>3</dim>
				</port>
			</input>
			<output>
				<port id="2" precision="FP32">
					<dim>-1</dim>
					<dim>32</dim>
					<dim>-1</dim>
					<dim>-1</dim>
				</port>
			</output>
		</layer>
		<layer id="269" name="Reshape_43690_compressed" type="Const" version="opset1">
			<data element_type="f16" shape="1, 32, 1, 1" offset="2567682" size="64" />
			<output>
				<port id="0" precision="FP16">
					<dim>1</dim>
					<dim>32</dim>
					<dim>1</dim>
					<dim>1</dim>
				</port>
			</output>
		</layer>
		<layer id="270" name="Reshape_43690" type="Convert" version="opset1">
			<data destination_type="f32" />
			<rt_info>
				<attribute name="decompression" version="0" />
			</rt_info>
			<input>
				<port id="0" precision="FP16">
					<dim>1</dim>
					<dim>32</dim>
					<dim>1</dim>
					<dim>1</dim>
				</port>
			</input>
			<output>
				<port id="1" precision="FP32">
					<dim>1</dim>
					<dim>32</dim>
					<dim>1</dim>
					<dim>1</dim>
				</port>
			</output>
		</layer>
		<layer id="271" name="p2o.Conv.28" type="Add" version="opset1">
			<data auto_broadcast="numpy" />
			<input>
				<port id="0" precision="FP32">
					<dim>-1</dim>
					<dim>32</dim>
					<dim>-1</dim>
					<dim>-1</dim>
				</port>
				<port id="1" precision="FP32">
					<dim>1</dim>
					<dim>32</dim>
					<dim>1</dim>
					<dim>1</dim>
				</port>
			</input>
			<output>
				<port id="2" precision="FP32" names="conv2d_28.tmp_0">
					<dim>-1</dim>
					<dim>32</dim>
					<dim>-1</dim>
					<dim>-1</dim>
				</port>
			</output>
		</layer>
		<layer id="272" name="Constant_43694_compressed" type="Const" version="opset1">
			<data element_type="f16" shape="1" offset="40512" size="2" />
			<output>
				<port id="0" precision="FP16">
					<dim>1</dim>
				</port>
			</output>
		</layer>
		<layer id="273" name="Constant_43694" type="Convert" version="opset1">
			<data destination_type="f32" />
			<rt_info>
				<attribute name="decompression" version="0" />
			</rt_info>
			<input>
				<port id="0" precision="FP16">
					<dim>1</dim>
				</port>
			</input>
			<output>
				<port id="1" precision="FP32">
					<dim>1</dim>
				</port>
			</output>
		</layer>
		<layer id="274" name="p2o.LeakyRelu.22" type="PReLU" version="opset1">
			<input>
				<port id="0" precision="FP32">
					<dim>-1</dim>
					<dim>32</dim>
					<dim>-1</dim>
					<dim>-1</dim>
				</port>
				<port id="1" precision="FP32">
					<dim>1</dim>
				</port>
			</input>
			<output>
				<port id="2" precision="FP32" names="leaky_relu_22.tmp_0">
					<dim>-1</dim>
					<dim>32</dim>
					<dim>-1</dim>
					<dim>-1</dim>
				</port>
			</output>
		</layer>
		<layer id="275" name="p2o.Concat.44" type="Concat" version="opset1">
			<data axis="1" />
			<input>
				<port id="0" precision="FP32">
					<dim>-1</dim>
					<dim>64</dim>
					<dim>-1</dim>
					<dim>-1</dim>
				</port>
				<port id="1" precision="FP32">
					<dim>-1</dim>
					<dim>32</dim>
					<dim>-1</dim>
					<dim>-1</dim>
				</port>
				<port id="2" precision="FP32">
					<dim>-1</dim>
					<dim>32</dim>
					<dim>-1</dim>
					<dim>-1</dim>
				</port>
				<port id="3" precision="FP32">
					<dim>-1</dim>
					<dim>32</dim>
					<dim>-1</dim>
					<dim>-1</dim>
				</port>
			</input>
			<output>
				<port id="4" precision="FP32" names="p2o.Concat.45">
					<dim>-1</dim>
					<dim>160</dim>
					<dim>-1</dim>
					<dim>-1</dim>
				</port>
			</output>
		</layer>
		<layer id="276" name="conv2d_29.w_0_compressed" type="Const" version="opset1">
			<data element_type="f16" shape="32, 160, 3, 3" offset="2567746" size="92160" />
			<output>
				<port id="0" precision="FP16" names="conv2d_29.w_0">
					<dim>32</dim>
					<dim>160</dim>
					<dim>3</dim>
					<dim>3</dim>
				</port>
			</output>
		</layer>
		<layer id="277" name="conv2d_29.w_0" type="Convert" version="opset1">
			<data destination_type="f32" />
			<rt_info>
				<attribute name="decompression" version="0" />
			</rt_info>
			<input>
				<port id="0" precision="FP16">
					<dim>32</dim>
					<dim>160</dim>
					<dim>3</dim>
					<dim>3</dim>
				</port>
			</input>
			<output>
				<port id="1" precision="FP32">
					<dim>32</dim>
					<dim>160</dim>
					<dim>3</dim>
					<dim>3</dim>
				</port>
			</output>
		</layer>
		<layer id="278" name="p2o.Conv.29/WithoutBiases" type="Convolution" version="opset1">
			<data strides="1, 1" dilations="1, 1" pads_begin="1, 1" pads_end="1, 1" auto_pad="explicit" />
			<input>
				<port id="0" precision="FP32">
					<dim>-1</dim>
					<dim>160</dim>
					<dim>-1</dim>
					<dim>-1</dim>
				</port>
				<port id="1" precision="FP32">
					<dim>32</dim>
					<dim>160</dim>
					<dim>3</dim>
					<dim>3</dim>
				</port>
			</input>
			<output>
				<port id="2" precision="FP32">
					<dim>-1</dim>
					<dim>32</dim>
					<dim>-1</dim>
					<dim>-1</dim>
				</port>
			</output>
		</layer>
		<layer id="279" name="Reshape_43709_compressed" type="Const" version="opset1">
			<data element_type="f16" shape="1, 32, 1, 1" offset="2659906" size="64" />
			<output>
				<port id="0" precision="FP16">
					<dim>1</dim>
					<dim>32</dim>
					<dim>1</dim>
					<dim>1</dim>
				</port>
			</output>
		</layer>
		<layer id="280" name="Reshape_43709" type="Convert" version="opset1">
			<data destination_type="f32" />
			<rt_info>
				<attribute name="decompression" version="0" />
			</rt_info>
			<input>
				<port id="0" precision="FP16">
					<dim>1</dim>
					<dim>32</dim>
					<dim>1</dim>
					<dim>1</dim>
				</port>
			</input>
			<output>
				<port id="1" precision="FP32">
					<dim>1</dim>
					<dim>32</dim>
					<dim>1</dim>
					<dim>1</dim>
				</port>
			</output>
		</layer>
		<layer id="281" name="p2o.Conv.29" type="Add" version="opset1">
			<data auto_broadcast="numpy" />
			<input>
				<port id="0" precision="FP32">
					<dim>-1</dim>
					<dim>32</dim>
					<dim>-1</dim>
					<dim>-1</dim>
				</port>
				<port id="1" precision="FP32">
					<dim>1</dim>
					<dim>32</dim>
					<dim>1</dim>
					<dim>1</dim>
				</port>
			</input>
			<output>
				<port id="2" precision="FP32" names="conv2d_29.tmp_0">
					<dim>-1</dim>
					<dim>32</dim>
					<dim>-1</dim>
					<dim>-1</dim>
				</port>
			</output>
		</layer>
		<layer id="282" name="Constant_43713_compressed" type="Const" version="opset1">
			<data element_type="f16" shape="1" offset="40512" size="2" />
			<output>
				<port id="0" precision="FP16">
					<dim>1</dim>
				</port>
			</output>
		</layer>
		<layer id="283" name="Constant_43713" type="Convert" version="opset1">
			<data destination_type="f32" />
			<rt_info>
				<attribute name="decompression" version="0" />
			</rt_info>
			<input>
				<port id="0" precision="FP16">
					<dim>1</dim>
				</port>
			</input>
			<output>
				<port id="1" precision="FP32">
					<dim>1</dim>
				</port>
			</output>
		</layer>
		<layer id="284" name="p2o.LeakyRelu.23" type="PReLU" version="opset1">
			<input>
				<port id="0" precision="FP32">
					<dim>-1</dim>
					<dim>32</dim>
					<dim>-1</dim>
					<dim>-1</dim>
				</port>
				<port id="1" precision="FP32">
					<dim>1</dim>
				</port>
			</input>
			<output>
				<port id="2" precision="FP32" names="leaky_relu_23.tmp_0">
					<dim>-1</dim>
					<dim>32</dim>
					<dim>-1</dim>
					<dim>-1</dim>
				</port>
			</output>
		</layer>
		<layer id="285" name="p2o.Concat.46" type="Concat" version="opset1">
			<data axis="1" />
			<input>
				<port id="0" precision="FP32">
					<dim>-1</dim>
					<dim>64</dim>
					<dim>-1</dim>
					<dim>-1</dim>
				</port>
				<port id="1" precision="FP32">
					<dim>-1</dim>
					<dim>32</dim>
					<dim>-1</dim>
					<dim>-1</dim>
				</port>
				<port id="2" precision="FP32">
					<dim>-1</dim>
					<dim>32</dim>
					<dim>-1</dim>
					<dim>-1</dim>
				</port>
				<port id="3" precision="FP32">
					<dim>-1</dim>
					<dim>32</dim>
					<dim>-1</dim>
					<dim>-1</dim>
				</port>
				<port id="4" precision="FP32">
					<dim>-1</dim>
					<dim>32</dim>
					<dim>-1</dim>
					<dim>-1</dim>
				</port>
			</input>
			<output>
				<port id="5" precision="FP32" names="p2o.Concat.47">
					<dim>-1</dim>
					<dim>192</dim>
					<dim>-1</dim>
					<dim>-1</dim>
				</port>
			</output>
		</layer>
		<layer id="286" name="Multiply_58019_compressed" type="Const" version="opset1">
			<data element_type="f16" shape="64, 192, 3, 3" offset="2659970" size="221184" />
			<output>
				<port id="0" precision="FP16">
					<dim>64</dim>
					<dim>192</dim>
					<dim>3</dim>
					<dim>3</dim>
				</port>
			</output>
		</layer>
		<layer id="287" name="Multiply_58019" type="Convert" version="opset1">
			<data destination_type="f32" />
			<rt_info>
				<attribute name="decompression" version="0" />
			</rt_info>
			<input>
				<port id="0" precision="FP16">
					<dim>64</dim>
					<dim>192</dim>
					<dim>3</dim>
					<dim>3</dim>
				</port>
			</input>
			<output>
				<port id="1" precision="FP32">
					<dim>64</dim>
					<dim>192</dim>
					<dim>3</dim>
					<dim>3</dim>
				</port>
			</output>
		</layer>
		<layer id="288" name="Multiply_57753" type="Convolution" version="opset1">
			<data strides="1, 1" dilations="1, 1" pads_begin="1, 1" pads_end="1, 1" auto_pad="explicit" />
			<input>
				<port id="0" precision="FP32">
					<dim>-1</dim>
					<dim>192</dim>
					<dim>-1</dim>
					<dim>-1</dim>
				</port>
				<port id="1" precision="FP32">
					<dim>64</dim>
					<dim>192</dim>
					<dim>3</dim>
					<dim>3</dim>
				</port>
			</input>
			<output>
				<port id="2" precision="FP32">
					<dim>-1</dim>
					<dim>64</dim>
					<dim>-1</dim>
					<dim>-1</dim>
				</port>
			</output>
		</layer>
		<layer id="289" name="Constant_57755_compressed" type="Const" version="opset1">
			<data element_type="f16" shape="1, 64, 1, 1" offset="2881154" size="128" />
			<output>
				<port id="0" precision="FP16">
					<dim>1</dim>
					<dim>64</dim>
					<dim>1</dim>
					<dim>1</dim>
				</port>
			</output>
		</layer>
		<layer id="290" name="Constant_57755" type="Convert" version="opset1">
			<data destination_type="f32" />
			<rt_info>
				<attribute name="decompression" version="0" />
			</rt_info>
			<input>
				<port id="0" precision="FP16">
					<dim>1</dim>
					<dim>64</dim>
					<dim>1</dim>
					<dim>1</dim>
				</port>
			</input>
			<output>
				<port id="1" precision="FP32">
					<dim>1</dim>
					<dim>64</dim>
					<dim>1</dim>
					<dim>1</dim>
				</port>
			</output>
		</layer>
		<layer id="291" name="p2o.Mul.12" type="Add" version="opset1">
			<data auto_broadcast="numpy" />
			<input>
				<port id="0" precision="FP32">
					<dim>-1</dim>
					<dim>64</dim>
					<dim>-1</dim>
					<dim>-1</dim>
				</port>
				<port id="1" precision="FP32">
					<dim>1</dim>
					<dim>64</dim>
					<dim>1</dim>
					<dim>1</dim>
				</port>
			</input>
			<output>
				<port id="2" precision="FP32" names="p2o.Mul.13">
					<dim>-1</dim>
					<dim>64</dim>
					<dim>-1</dim>
					<dim>-1</dim>
				</port>
			</output>
		</layer>
		<layer id="292" name="p2o.Add.74" type="Add" version="opset1">
			<data auto_broadcast="numpy" />
			<input>
				<port id="0" precision="FP32">
					<dim>-1</dim>
					<dim>64</dim>
					<dim>-1</dim>
					<dim>-1</dim>
				</port>
				<port id="1" precision="FP32">
					<dim>-1</dim>
					<dim>64</dim>
					<dim>-1</dim>
					<dim>-1</dim>
				</port>
			</input>
			<output>
				<port id="2" precision="FP32" names="p2o.Add.75">
					<dim>-1</dim>
					<dim>64</dim>
					<dim>-1</dim>
					<dim>-1</dim>
				</port>
			</output>
		</layer>
		<layer id="293" name="Constant_58225_compressed" type="Const" version="opset1">
			<data element_type="f16" shape="1, 1, 1, 1" offset="40512" size="2" />
			<output>
				<port id="0" precision="FP16">
					<dim>1</dim>
					<dim>1</dim>
					<dim>1</dim>
					<dim>1</dim>
				</port>
			</output>
		</layer>
		<layer id="294" name="Constant_58225" type="Convert" version="opset1">
			<data destination_type="f32" />
			<rt_info>
				<attribute name="decompression" version="0" />
			</rt_info>
			<input>
				<port id="0" precision="FP16">
					<dim>1</dim>
					<dim>1</dim>
					<dim>1</dim>
					<dim>1</dim>
				</port>
			</input>
			<output>
				<port id="1" precision="FP32">
					<dim>1</dim>
					<dim>1</dim>
					<dim>1</dim>
					<dim>1</dim>
				</port>
			</output>
		</layer>
		<layer id="295" name="p2o.Mul.14" type="Multiply" version="opset1">
			<data auto_broadcast="numpy" />
			<input>
				<port id="0" precision="FP32">
					<dim>-1</dim>
					<dim>64</dim>
					<dim>-1</dim>
					<dim>-1</dim>
				</port>
				<port id="1" precision="FP32">
					<dim>1</dim>
					<dim>1</dim>
					<dim>1</dim>
					<dim>1</dim>
				</port>
			</input>
			<output>
				<port id="2" precision="FP32" names="p2o.Mul.15">
					<dim>-1</dim>
					<dim>64</dim>
					<dim>-1</dim>
					<dim>-1</dim>
				</port>
			</output>
		</layer>
		<layer id="296" name="p2o.Add.76" type="Add" version="opset1">
			<data auto_broadcast="numpy" />
			<input>
				<port id="0" precision="FP32">
					<dim>-1</dim>
					<dim>64</dim>
					<dim>-1</dim>
					<dim>-1</dim>
				</port>
				<port id="1" precision="FP32">
					<dim>-1</dim>
					<dim>64</dim>
					<dim>-1</dim>
					<dim>-1</dim>
				</port>
			</input>
			<output>
				<port id="2" precision="FP32" names="p2o.Add.77">
					<dim>-1</dim>
					<dim>64</dim>
					<dim>-1</dim>
					<dim>-1</dim>
				</port>
			</output>
		</layer>
		<layer id="297" name="conv2d_31.w_0_compressed" type="Const" version="opset1">
			<data element_type="f16" shape="32, 64, 3, 3" offset="2881282" size="36864" />
			<output>
				<port id="0" precision="FP16" names="conv2d_31.w_0">
					<dim>32</dim>
					<dim>64</dim>
					<dim>3</dim>
					<dim>3</dim>
				</port>
			</output>
		</layer>
		<layer id="298" name="conv2d_31.w_0" type="Convert" version="opset1">
			<data destination_type="f32" />
			<rt_info>
				<attribute name="decompression" version="0" />
			</rt_info>
			<input>
				<port id="0" precision="FP16">
					<dim>32</dim>
					<dim>64</dim>
					<dim>3</dim>
					<dim>3</dim>
				</port>
			</input>
			<output>
				<port id="1" precision="FP32">
					<dim>32</dim>
					<dim>64</dim>
					<dim>3</dim>
					<dim>3</dim>
				</port>
			</output>
		</layer>
		<layer id="299" name="p2o.Conv.31/WithoutBiases" type="Convolution" version="opset1">
			<data strides="1, 1" dilations="1, 1" pads_begin="1, 1" pads_end="1, 1" auto_pad="explicit" />
			<input>
				<port id="0" precision="FP32">
					<dim>-1</dim>
					<dim>64</dim>
					<dim>-1</dim>
					<dim>-1</dim>
				</port>
				<port id="1" precision="FP32">
					<dim>32</dim>
					<dim>64</dim>
					<dim>3</dim>
					<dim>3</dim>
				</port>
			</input>
			<output>
				<port id="2" precision="FP32">
					<dim>-1</dim>
					<dim>32</dim>
					<dim>-1</dim>
					<dim>-1</dim>
				</port>
			</output>
		</layer>
		<layer id="300" name="Reshape_43750_compressed" type="Const" version="opset1">
			<data element_type="f16" shape="1, 32, 1, 1" offset="2918146" size="64" />
			<output>
				<port id="0" precision="FP16">
					<dim>1</dim>
					<dim>32</dim>
					<dim>1</dim>
					<dim>1</dim>
				</port>
			</output>
		</layer>
		<layer id="301" name="Reshape_43750" type="Convert" version="opset1">
			<data destination_type="f32" />
			<rt_info>
				<attribute name="decompression" version="0" />
			</rt_info>
			<input>
				<port id="0" precision="FP16">
					<dim>1</dim>
					<dim>32</dim>
					<dim>1</dim>
					<dim>1</dim>
				</port>
			</input>
			<output>
				<port id="1" precision="FP32">
					<dim>1</dim>
					<dim>32</dim>
					<dim>1</dim>
					<dim>1</dim>
				</port>
			</output>
		</layer>
		<layer id="302" name="p2o.Conv.31" type="Add" version="opset1">
			<data auto_broadcast="numpy" />
			<input>
				<port id="0" precision="FP32">
					<dim>-1</dim>
					<dim>32</dim>
					<dim>-1</dim>
					<dim>-1</dim>
				</port>
				<port id="1" precision="FP32">
					<dim>1</dim>
					<dim>32</dim>
					<dim>1</dim>
					<dim>1</dim>
				</port>
			</input>
			<output>
				<port id="2" precision="FP32" names="conv2d_31.tmp_0">
					<dim>-1</dim>
					<dim>32</dim>
					<dim>-1</dim>
					<dim>-1</dim>
				</port>
			</output>
		</layer>
		<layer id="303" name="Constant_43754_compressed" type="Const" version="opset1">
			<data element_type="f16" shape="1" offset="40512" size="2" />
			<output>
				<port id="0" precision="FP16">
					<dim>1</dim>
				</port>
			</output>
		</layer>
		<layer id="304" name="Constant_43754" type="Convert" version="opset1">
			<data destination_type="f32" />
			<rt_info>
				<attribute name="decompression" version="0" />
			</rt_info>
			<input>
				<port id="0" precision="FP16">
					<dim>1</dim>
				</port>
			</input>
			<output>
				<port id="1" precision="FP32">
					<dim>1</dim>
				</port>
			</output>
		</layer>
		<layer id="305" name="p2o.LeakyRelu.24" type="PReLU" version="opset1">
			<input>
				<port id="0" precision="FP32">
					<dim>-1</dim>
					<dim>32</dim>
					<dim>-1</dim>
					<dim>-1</dim>
				</port>
				<port id="1" precision="FP32">
					<dim>1</dim>
				</port>
			</input>
			<output>
				<port id="2" precision="FP32" names="leaky_relu_24.tmp_0">
					<dim>-1</dim>
					<dim>32</dim>
					<dim>-1</dim>
					<dim>-1</dim>
				</port>
			</output>
		</layer>
		<layer id="306" name="p2o.Concat.48" type="Concat" version="opset1">
			<data axis="1" />
			<input>
				<port id="0" precision="FP32">
					<dim>-1</dim>
					<dim>64</dim>
					<dim>-1</dim>
					<dim>-1</dim>
				</port>
				<port id="1" precision="FP32">
					<dim>-1</dim>
					<dim>32</dim>
					<dim>-1</dim>
					<dim>-1</dim>
				</port>
			</input>
			<output>
				<port id="2" precision="FP32" names="p2o.Concat.49">
					<dim>-1</dim>
					<dim>96</dim>
					<dim>-1</dim>
					<dim>-1</dim>
				</port>
			</output>
		</layer>
		<layer id="307" name="conv2d_32.w_0_compressed" type="Const" version="opset1">
			<data element_type="f16" shape="32, 96, 3, 3" offset="2918210" size="55296" />
			<output>
				<port id="0" precision="FP16" names="conv2d_32.w_0">
					<dim>32</dim>
					<dim>96</dim>
					<dim>3</dim>
					<dim>3</dim>
				</port>
			</output>
		</layer>
		<layer id="308" name="conv2d_32.w_0" type="Convert" version="opset1">
			<data destination_type="f32" />
			<rt_info>
				<attribute name="decompression" version="0" />
			</rt_info>
			<input>
				<port id="0" precision="FP16">
					<dim>32</dim>
					<dim>96</dim>
					<dim>3</dim>
					<dim>3</dim>
				</port>
			</input>
			<output>
				<port id="1" precision="FP32">
					<dim>32</dim>
					<dim>96</dim>
					<dim>3</dim>
					<dim>3</dim>
				</port>
			</output>
		</layer>
		<layer id="309" name="p2o.Conv.32/WithoutBiases" type="Convolution" version="opset1">
			<data strides="1, 1" dilations="1, 1" pads_begin="1, 1" pads_end="1, 1" auto_pad="explicit" />
			<input>
				<port id="0" precision="FP32">
					<dim>-1</dim>
					<dim>96</dim>
					<dim>-1</dim>
					<dim>-1</dim>
				</port>
				<port id="1" precision="FP32">
					<dim>32</dim>
					<dim>96</dim>
					<dim>3</dim>
					<dim>3</dim>
				</port>
			</input>
			<output>
				<port id="2" precision="FP32">
					<dim>-1</dim>
					<dim>32</dim>
					<dim>-1</dim>
					<dim>-1</dim>
				</port>
			</output>
		</layer>
		<layer id="310" name="Reshape_43769_compressed" type="Const" version="opset1">
			<data element_type="f16" shape="1, 32, 1, 1" offset="2973506" size="64" />
			<output>
				<port id="0" precision="FP16">
					<dim>1</dim>
					<dim>32</dim>
					<dim>1</dim>
					<dim>1</dim>
				</port>
			</output>
		</layer>
		<layer id="311" name="Reshape_43769" type="Convert" version="opset1">
			<data destination_type="f32" />
			<rt_info>
				<attribute name="decompression" version="0" />
			</rt_info>
			<input>
				<port id="0" precision="FP16">
					<dim>1</dim>
					<dim>32</dim>
					<dim>1</dim>
					<dim>1</dim>
				</port>
			</input>
			<output>
				<port id="1" precision="FP32">
					<dim>1</dim>
					<dim>32</dim>
					<dim>1</dim>
					<dim>1</dim>
				</port>
			</output>
		</layer>
		<layer id="312" name="p2o.Conv.32" type="Add" version="opset1">
			<data auto_broadcast="numpy" />
			<input>
				<port id="0" precision="FP32">
					<dim>-1</dim>
					<dim>32</dim>
					<dim>-1</dim>
					<dim>-1</dim>
				</port>
				<port id="1" precision="FP32">
					<dim>1</dim>
					<dim>32</dim>
					<dim>1</dim>
					<dim>1</dim>
				</port>
			</input>
			<output>
				<port id="2" precision="FP32" names="conv2d_32.tmp_0">
					<dim>-1</dim>
					<dim>32</dim>
					<dim>-1</dim>
					<dim>-1</dim>
				</port>
			</output>
		</layer>
		<layer id="313" name="Constant_43773_compressed" type="Const" version="opset1">
			<data element_type="f16" shape="1" offset="40512" size="2" />
			<output>
				<port id="0" precision="FP16">
					<dim>1</dim>
				</port>
			</output>
		</layer>
		<layer id="314" name="Constant_43773" type="Convert" version="opset1">
			<data destination_type="f32" />
			<rt_info>
				<attribute name="decompression" version="0" />
			</rt_info>
			<input>
				<port id="0" precision="FP16">
					<dim>1</dim>
				</port>
			</input>
			<output>
				<port id="1" precision="FP32">
					<dim>1</dim>
				</port>
			</output>
		</layer>
		<layer id="315" name="p2o.LeakyRelu.25" type="PReLU" version="opset1">
			<input>
				<port id="0" precision="FP32">
					<dim>-1</dim>
					<dim>32</dim>
					<dim>-1</dim>
					<dim>-1</dim>
				</port>
				<port id="1" precision="FP32">
					<dim>1</dim>
				</port>
			</input>
			<output>
				<port id="2" precision="FP32" names="leaky_relu_25.tmp_0">
					<dim>-1</dim>
					<dim>32</dim>
					<dim>-1</dim>
					<dim>-1</dim>
				</port>
			</output>
		</layer>
		<layer id="316" name="p2o.Concat.50" type="Concat" version="opset1">
			<data axis="1" />
			<input>
				<port id="0" precision="FP32">
					<dim>-1</dim>
					<dim>64</dim>
					<dim>-1</dim>
					<dim>-1</dim>
				</port>
				<port id="1" precision="FP32">
					<dim>-1</dim>
					<dim>32</dim>
					<dim>-1</dim>
					<dim>-1</dim>
				</port>
				<port id="2" precision="FP32">
					<dim>-1</dim>
					<dim>32</dim>
					<dim>-1</dim>
					<dim>-1</dim>
				</port>
			</input>
			<output>
				<port id="3" precision="FP32" names="p2o.Concat.51">
					<dim>-1</dim>
					<dim>128</dim>
					<dim>-1</dim>
					<dim>-1</dim>
				</port>
			</output>
		</layer>
		<layer id="317" name="conv2d_33.w_0_compressed" type="Const" version="opset1">
			<data element_type="f16" shape="32, 128, 3, 3" offset="2973570" size="73728" />
			<output>
				<port id="0" precision="FP16" names="conv2d_33.w_0">
					<dim>32</dim>
					<dim>128</dim>
					<dim>3</dim>
					<dim>3</dim>
				</port>
			</output>
		</layer>
		<layer id="318" name="conv2d_33.w_0" type="Convert" version="opset1">
			<data destination_type="f32" />
			<rt_info>
				<attribute name="decompression" version="0" />
			</rt_info>
			<input>
				<port id="0" precision="FP16">
					<dim>32</dim>
					<dim>128</dim>
					<dim>3</dim>
					<dim>3</dim>
				</port>
			</input>
			<output>
				<port id="1" precision="FP32">
					<dim>32</dim>
					<dim>128</dim>
					<dim>3</dim>
					<dim>3</dim>
				</port>
			</output>
		</layer>
		<layer id="319" name="p2o.Conv.33/WithoutBiases" type="Convolution" version="opset1">
			<data strides="1, 1" dilations="1, 1" pads_begin="1, 1" pads_end="1, 1" auto_pad="explicit" />
			<input>
				<port id="0" precision="FP32">
					<dim>-1</dim>
					<dim>128</dim>
					<dim>-1</dim>
					<dim>-1</dim>
				</port>
				<port id="1" precision="FP32">
					<dim>32</dim>
					<dim>128</dim>
					<dim>3</dim>
					<dim>3</dim>
				</port>
			</input>
			<output>
				<port id="2" precision="FP32">
					<dim>-1</dim>
					<dim>32</dim>
					<dim>-1</dim>
					<dim>-1</dim>
				</port>
			</output>
		</layer>
		<layer id="320" name="Reshape_43788_compressed" type="Const" version="opset1">
			<data element_type="f16" shape="1, 32, 1, 1" offset="3047298" size="64" />
			<output>
				<port id="0" precision="FP16">
					<dim>1</dim>
					<dim>32</dim>
					<dim>1</dim>
					<dim>1</dim>
				</port>
			</output>
		</layer>
		<layer id="321" name="Reshape_43788" type="Convert" version="opset1">
			<data destination_type="f32" />
			<rt_info>
				<attribute name="decompression" version="0" />
			</rt_info>
			<input>
				<port id="0" precision="FP16">
					<dim>1</dim>
					<dim>32</dim>
					<dim>1</dim>
					<dim>1</dim>
				</port>
			</input>
			<output>
				<port id="1" precision="FP32">
					<dim>1</dim>
					<dim>32</dim>
					<dim>1</dim>
					<dim>1</dim>
				</port>
			</output>
		</layer>
		<layer id="322" name="p2o.Conv.33" type="Add" version="opset1">
			<data auto_broadcast="numpy" />
			<input>
				<port id="0" precision="FP32">
					<dim>-1</dim>
					<dim>32</dim>
					<dim>-1</dim>
					<dim>-1</dim>
				</port>
				<port id="1" precision="FP32">
					<dim>1</dim>
					<dim>32</dim>
					<dim>1</dim>
					<dim>1</dim>
				</port>
			</input>
			<output>
				<port id="2" precision="FP32" names="conv2d_33.tmp_0">
					<dim>-1</dim>
					<dim>32</dim>
					<dim>-1</dim>
					<dim>-1</dim>
				</port>
			</output>
		</layer>
		<layer id="323" name="Constant_43792_compressed" type="Const" version="opset1">
			<data element_type="f16" shape="1" offset="40512" size="2" />
			<output>
				<port id="0" precision="FP16">
					<dim>1</dim>
				</port>
			</output>
		</layer>
		<layer id="324" name="Constant_43792" type="Convert" version="opset1">
			<data destination_type="f32" />
			<rt_info>
				<attribute name="decompression" version="0" />
			</rt_info>
			<input>
				<port id="0" precision="FP16">
					<dim>1</dim>
				</port>
			</input>
			<output>
				<port id="1" precision="FP32">
					<dim>1</dim>
				</port>
			</output>
		</layer>
		<layer id="325" name="p2o.LeakyRelu.26" type="PReLU" version="opset1">
			<input>
				<port id="0" precision="FP32">
					<dim>-1</dim>
					<dim>32</dim>
					<dim>-1</dim>
					<dim>-1</dim>
				</port>
				<port id="1" precision="FP32">
…
		<edge from-layer="2808" from-port="2" to-layer="2855" to-port="1" />
		<edge from-layer="2808" from-port="2" to-layer="2848" to-port="0" />
		<edge from-layer="2808" from-port="2" to-layer="2838" to-port="0" />
		<edge from-layer="2808" from-port="2" to-layer="2828" to-port="0" />
		<edge from-layer="2808" from-port="2" to-layer="2818" to-port="0" />
		<edge from-layer="2808" from-port="2" to-layer="2811" to-port="0" />
		<edge from-layer="2809" from-port="0" to-layer="2810" to-port="0" />
		<edge from-layer="2810" from-port="1" to-layer="2811" to-port="1" />
		<edge from-layer="2811" from-port="2" to-layer="2814" to-port="0" />
		<edge from-layer="2812" from-port="0" to-layer="2813" to-port="0" />
		<edge from-layer="2813" from-port="1" to-layer="2814" to-port="1" />
		<edge from-layer="2814" from-port="2" to-layer="2817" to-port="0" />
		<edge from-layer="2815" from-port="0" to-layer="2816" to-port="0" />
		<edge from-layer="2816" from-port="1" to-layer="2817" to-port="1" />
		<edge from-layer="2817" from-port="2" to-layer="2818" to-port="1" />
		<edge from-layer="2817" from-port="2" to-layer="2828" to-port="1" />
		<edge from-layer="2817" from-port="2" to-layer="2848" to-port="1" />
		<edge from-layer="2817" from-port="2" to-layer="2838" to-port="1" />
		<edge from-layer="2818" from-port="2" to-layer="2821" to-port="0" />
		<edge from-layer="2819" from-port="0" to-layer="2820" to-port="0" />
		<edge from-layer="2820" from-port="1" to-layer="2821" to-port="1" />
		<edge from-layer="2821" from-port="2" to-layer="2824" to-port="0" />
		<edge from-layer="2822" from-port="0" to-layer="2823" to-port="0" />
		<edge from-layer="2823" from-port="1" to-layer="2824" to-port="1" />
		<edge from-layer="2824" from-port="2" to-layer="2827" to-port="0" />
		<edge from-layer="2825" from-port="0" to-layer="2826" to-port="0" />
		<edge from-layer="2826" from-port="1" to-layer="2827" to-port="1" />
		<edge from-layer="2827" from-port="2" to-layer="2838" to-port="2" />
		<edge from-layer="2827" from-port="2" to-layer="2828" to-port="2" />
		<edge from-layer="2827" from-port="2" to-layer="2848" to-port="2" />
		<edge from-layer="2828" from-port="3" to-layer="2831" to-port="0" />
		<edge from-layer="2829" from-port="0" to-layer="2830" to-port="0" />
		<edge from-layer="2830" from-port="1" to-layer="2831" to-port="1" />
		<edge from-layer="2831" from-port="2" to-layer="2834" to-port="0" />
		<edge from-layer="2832" from-port="0" to-layer="2833" to-port="0" />
		<edge from-layer="2833" from-port="1" to-layer="2834" to-port="1" />
		<edge from-layer="2834" from-port="2" to-layer="2837" to-port="0" />
		<edge from-layer="2835" from-port="0" to-layer="2836" to-port="0" />
		<edge from-layer="2836" from-port="1" to-layer="2837" to-port="1" />
		<edge from-layer="2837" from-port="2" to-layer="2848" to-port="3" />
		<edge from-layer="2837" from-port="2" to-layer="2838" to-port="3" />
		<edge from-layer="2838" from-port="4" to-layer="2841" to-port="0" />
		<edge from-layer="2839" from-port="0" to-layer="2840" to-port="0" />
		<edge from-layer="2840" from-port="1" to-layer="2841" to-port="1" />
		<edge from-layer="2841" from-port="2" to-layer="2844" to-port="0" />
		<edge from-layer="2842" from-port="0" to-layer="2843" to-port="0" />
		<edge from-layer="2843" from-port="1" to-layer="2844" to-port="1" />
		<edge from-layer="2844" from-port="2" to-layer="2847" to-port="0" />
		<edge from-layer="2845" from-port="0" to-layer="2846" to-port="0" />
		<edge from-layer="2846" from-port="1" to-layer="2847" to-port="1" />
		<edge from-layer="2847" from-port="2" to-layer="2848" to-port="4" />
		<edge from-layer="2848" from-port="5" to-layer="2851" to-port="0" />
		<edge from-layer="2849" from-port="0" to-layer="2850" to-port="0" />
		<edge from-layer="2850" from-port="1" to-layer="2851" to-port="1" />
		<edge from-layer="2851" from-port="2" to-layer="2854" to-port="0" />
		<edge from-layer="2852" from-port="0" to-layer="2853" to-port="0" />
		<edge from-layer="2853" from-port="1" to-layer="2854" to-port="1" />
		<edge from-layer="2854" from-port="2" to-layer="2855" to-port="0" />
		<edge from-layer="2855" from-port="2" to-layer="2895" to-port="0" />
		<edge from-layer="2855" from-port="2" to-layer="2902" to-port="1" />
		<edge from-layer="2855" from-port="2" to-layer="2885" to-port="0" />
		<edge from-layer="2855" from-port="2" to-layer="2875" to-port="0" />
		<edge from-layer="2855" from-port="2" to-layer="2865" to-port="0" />
		<edge from-layer="2855" from-port="2" to-layer="2858" to-port="0" />
		<edge from-layer="2856" from-port="0" to-layer="2857" to-port="0" />
		<edge from-layer="2857" from-port="1" to-layer="2858" to-port="1" />
		<edge from-layer="2858" from-port="2" to-layer="2861" to-port="0" />
		<edge from-layer="2859" from-port="0" to-layer="2860" to-port="0" />
		<edge from-layer="2860" from-port="1" to-layer="2861" to-port="1" />
		<edge from-layer="2861" from-port="2" to-layer="2864" to-port="0" />
		<edge from-layer="2862" from-port="0" to-layer="2863" to-port="0" />
		<edge from-layer="2863" from-port="1" to-layer="2864" to-port="1" />
		<edge from-layer="2864" from-port="2" to-layer="2875" to-port="1" />
		<edge from-layer="2864" from-port="2" to-layer="2885" to-port="1" />
		<edge from-layer="2864" from-port="2" to-layer="2895" to-port="1" />
		<edge from-layer="2864" from-port="2" to-layer="2865" to-port="1" />
		<edge from-layer="2865" from-port="2" to-layer="2868" to-port="0" />
		<edge from-layer="2866" from-port="0" to-layer="2867" to-port="0" />
		<edge from-layer="2867" from-port="1" to-layer="2868" to-port="1" />
		<edge from-layer="2868" from-port="2" to-layer="2871" to-port="0" />
		<edge from-layer="2869" from-port="0" to-layer="2870" to-port="0" />
		<edge from-layer="2870" from-port="1" to-layer="2871" to-port="1" />
		<edge from-layer="2871" from-port="2" to-layer="2874" to-port="0" />
		<edge from-layer="2872" from-port="0" to-layer="2873" to-port="0" />
		<edge from-layer="2873" from-port="1" to-layer="2874" to-port="1" />
		<edge from-layer="2874" from-port="2" to-layer="2875" to-port="2" />
		<edge from-layer="2874" from-port="2" to-layer="2895" to-port="2" />
		<edge from-layer="2874" from-port="2" to-layer="2885" to-port="2" />
		<edge from-layer="2875" from-port="3" to-layer="2878" to-port="0" />
		<edge from-layer="2876" from-port="0" to-layer="2877" to-port="0" />
		<edge from-layer="2877" from-port="1" to-layer="2878" to-port="1" />
		<edge from-layer="2878" from-port="2" to-layer="2881" to-port="0" />
		<edge from-layer="2879" from-port="0" to-layer="2880" to-port="0" />
		<edge from-layer="2880" from-port="1" to-layer="2881" to-port="1" />
		<edge from-layer="2881" from-port="2" to-layer="2884" to-port="0" />
		<edge from-layer="2882" from-port="0" to-layer="2883" to-port="0" />
		<edge from-layer="2883" from-port="1" to-layer="2884" to-port="1" />
		<edge from-layer="2884" from-port="2" to-layer="2895" to-port="3" />
		<edge from-layer="2884" from-port="2" to-layer="2885" to-port="3" />
		<edge from-layer="2885" from-port="4" to-layer="2888" to-port="0" />
		<edge from-layer="2886" from-port="0" to-layer="2887" to-port="0" />
		<edge from-layer="2887" from-port="1" to-layer="2888" to-port="1" />
		<edge from-layer="2888" from-port="2" to-layer="2891" to-port="0" />
		<edge from-layer="2889" from-port="0" to-layer="2890" to-port="0" />
		<edge from-layer="2890" from-port="1" to-layer="2891" to-port="1" />
		<edge from-layer="2891" from-port="2" to-layer="2894" to-port="0" />
		<edge from-layer="2892" from-port="0" to-layer="2893" to-port="0" />
		<edge from-layer="2893" from-port="1" to-layer="2894" to-port="1" />
		<edge from-layer="2894" from-port="2" to-layer="2895" to-port="4" />
		<edge from-layer="2895" from-port="5" to-layer="2898" to-port="0" />
		<edge from-layer="2896" from-port="0" to-layer="2897" to-port="0" />
		<edge from-layer="2897" from-port="1" to-layer="2898" to-port="1" />
		<edge from-layer="2898" from-port="2" to-layer="2901" to-port="0" />
		<edge from-layer="2899" from-port="0" to-layer="2900" to-port="0" />
		<edge from-layer="2900" from-port="1" to-layer="2901" to-port="1" />
		<edge from-layer="2901" from-port="2" to-layer="2902" to-port="0" />
		<edge from-layer="2902" from-port="2" to-layer="2905" to-port="0" />
		<edge from-layer="2903" from-port="0" to-layer="2904" to-port="0" />
		<edge from-layer="2904" from-port="1" to-layer="2905" to-port="1" />
		<edge from-layer="2905" from-port="2" to-layer="2906" to-port="0" />
		<edge from-layer="2906" from-port="2" to-layer="2909" to-port="0" />
		<edge from-layer="2906" from-port="2" to-layer="3051" to-port="1" />
		<edge from-layer="2906" from-port="2" to-layer="2953" to-port="1" />
		<edge from-layer="2906" from-port="2" to-layer="2946" to-port="0" />
		<edge from-layer="2906" from-port="2" to-layer="2936" to-port="0" />
		<edge from-layer="2906" from-port="2" to-layer="2926" to-port="0" />
		<edge from-layer="2906" from-port="2" to-layer="2916" to-port="0" />
		<edge from-layer="2907" from-port="0" to-layer="2908" to-port="0" />
		<edge from-layer="2908" from-port="1" to-layer="2909" to-port="1" />
		<edge from-layer="2909" from-port="2" to-layer="2912" to-port="0" />
		<edge from-layer="2910" from-port="0" to-layer="2911" to-port="0" />
		<edge from-layer="2911" from-port="1" to-layer="2912" to-port="1" />
		<edge from-layer="2912" from-port="2" to-layer="2915" to-port="0" />
		<edge from-layer="2913" from-port="0" to-layer="2914" to-port="0" />
		<edge from-layer="2914" from-port="1" to-layer="2915" to-port="1" />
		<edge from-layer="2915" from-port="2" to-layer="2946" to-port="1" />
		<edge from-layer="2915" from-port="2" to-layer="2916" to-port="1" />
		<edge from-layer="2915" from-port="2" to-layer="2936" to-port="1" />
		<edge from-layer="2915" from-port="2" to-layer="2926" to-port="1" />
		<edge from-layer="2916" from-port="2" to-layer="2919" to-port="0" />
		<edge from-layer="2917" from-port="0" to-layer="2918" to-port="0" />
		<edge from-layer="2918" from-port="1" to-layer="2919" to-port="1" />
		<edge from-layer="2919" from-port="2" to-layer="2922" to-port="0" />
		<edge from-layer="2920" from-port="0" to-layer="2921" to-port="0" />
		<edge from-layer="2921" from-port="1" to-layer="2922" to-port="1" />
		<edge from-layer="2922" from-port="2" to-layer="2925" to-port="0" />
		<edge from-layer="2923" from-port="0" to-layer="2924" to-port="0" />
		<edge from-layer="2924" from-port="1" to-layer="2925" to-port="1" />
		<edge from-layer="2925" from-port="2" to-layer="2926" to-port="2" />
		<edge from-layer="2925" from-port="2" to-layer="2946" to-port="2" />
		<edge from-layer="2925" from-port="2" to-layer="2936" to-port="2" />
		<edge from-layer="2926" from-port="3" to-layer="2929" to-port="0" />
		<edge from-layer="2927" from-port="0" to-layer="2928" to-port="0" />
		<edge from-layer="2928" from-port="1" to-layer="2929" to-port="1" />
		<edge from-layer="2929" from-port="2" to-layer="2932" to-port="0" />
		<edge from-layer="2930" from-port="0" to-layer="2931" to-port="0" />
		<edge from-layer="2931" from-port="1" to-layer="2932" to-port="1" />
		<edge from-layer="2932" from-port="2" to-layer="2935" to-port="0" />
		<edge from-layer="2933" from-port="0" to-layer="2934" to-port="0" />
		<edge from-layer="2934" from-port="1" to-layer="2935" to-port="1" />
		<edge from-layer="2935" from-port="2" to-layer="2936" to-port="3" />
		<edge from-layer="2935" from-port="2" to-layer="2946" to-port="3" />
		<edge from-layer="2936" from-port="4" to-layer="2939" to-port="0" />
		<edge from-layer="2937" from-port="0" to-layer="2938" to-port="0" />
		<edge from-layer="2938" from-port="1" to-layer="2939" to-port="1" />
		<edge from-layer="2939" from-port="2" to-layer="2942" to-port="0" />
		<edge from-layer="2940" from-port="0" to-layer="2941" to-port="0" />
		<edge from-layer="2941" from-port="1" to-layer="2942" to-port="1" />
		<edge from-layer="2942" from-port="2" to-layer="2945" to-port="0" />
		<edge from-layer="2943" from-port="0" to-layer="2944" to-port="0" />
		<edge from-layer="2944" from-port="1" to-layer="2945" to-port="1" />
		<edge from-layer="2945" from-port="2" to-layer="2946" to-port="4" />
		<edge from-layer="2946" from-port="5" to-layer="2949" to-port="0" />
		<edge from-layer="2947" from-port="0" to-layer="2948" to-port="0" />
		<edge from-layer="2948" from-port="1" to-layer="2949" to-port="1" />
		<edge from-layer="2949" from-port="2" to-layer="2952" to-port="0" />
		<edge from-layer="2950" from-port="0" to-layer="2951" to-port="0" />
		<edge from-layer="2951" from-port="1" to-layer="2952" to-port="1" />
		<edge from-layer="2952" from-port="2" to-layer="2953" to-port="0" />
		<edge from-layer="2953" from-port="2" to-layer="2983" to-port="0" />
		<edge from-layer="2953" from-port="2" to-layer="2963" to-port="0" />
		<edge from-layer="2953" from-port="2" to-layer="2993" to-port="0" />
		<edge from-layer="2953" from-port="2" to-layer="3000" to-port="1" />
		<edge from-layer="2953" from-port="2" to-layer="2973" to-port="0" />
		<edge from-layer="2953" from-port="2" to-layer="2956" to-port="0" />
		<edge from-layer="2954" from-port="0" to-layer="2955" to-port="0" />
		<edge from-layer="2955" from-port="1" to-layer="2956" to-port="1" />
		<edge from-layer="2956" from-port="2" to-layer="2959" to-port="0" />
		<edge from-layer="2957" from-port="0" to-layer="2958" to-port="0" />
		<edge from-layer="2958" from-port="1" to-layer="2959" to-port="1" />
		<edge from-layer="2959" from-port="2" to-layer="2962" to-port="0" />
		<edge from-layer="2960" from-port="0" to-layer="2961" to-port="0" />
		<edge from-layer="2961" from-port="1" to-layer="2962" to-port="1" />
		<edge from-layer="2962" from-port="2" to-layer="2993" to-port="1" />
		<edge from-layer="2962" from-port="2" to-layer="2983" to-port="1" />
		<edge from-layer="2962" from-port="2" to-layer="2973" to-port="1" />
		<edge from-layer="2962" from-port="2" to-layer="2963" to-port="1" />
		<edge from-layer="2963" from-port="2" to-layer="2966" to-port="0" />
		<edge from-layer="2964" from-port="0" to-layer="2965" to-port="0" />
		<edge from-layer="2965" from-port="1" to-layer="2966" to-port="1" />
		<edge from-layer="2966" from-port="2" to-layer="2969" to-port="0" />
		<edge from-layer="2967" from-port="0" to-layer="2968" to-port="0" />
		<edge from-layer="2968" from-port="1" to-layer="2969" to-port="1" />
		<edge from-layer="2969" from-port="2" to-layer="2972" to-port="0" />
		<edge from-layer="2970" from-port="0" to-layer="2971" to-port="0" />
		<edge from-layer="2971" from-port="1" to-layer="2972" to-port="1" />
		<edge from-layer="2972" from-port="2" to-layer="2993" to-port="2" />
		<edge from-layer="2972" from-port="2" to-layer="2983" to-port="2" />
		<edge from-layer="2972" from-port="2" to-layer="2973" to-port="2" />
		<edge from-layer="2973" from-port="3" to-layer="2976" to-port="0" />
		<edge from-layer="2974" from-port="0" to-layer="2975" to-port="0" />
		<edge from-layer="2975" from-port="1" to-layer="2976" to-port="1" />
		<edge from-layer="2976" from-port="2" to-layer="2979" to-port="0" />
		<edge from-layer="2977" from-port="0" to-layer="2978" to-port="0" />
		<edge from-layer="2978" from-port="1" to-layer="2979" to-port="1" />
		<edge from-layer="2979" from-port="2" to-layer="2982" to-port="0" />
		<edge from-layer="2980" from-port="0" to-layer="2981" to-port="0" />
		<edge from-layer="2981" from-port="1" to-layer="2982" to-port="1" />
		<edge from-layer="2982" from-port="2" to-layer="2983" to-port="3" />
		<edge from-layer="2982" from-port="2" to-layer="2993" to-port="3" />
		<edge from-layer="2983" from-port="4" to-layer="2986" to-port="0" />
		<edge from-layer="2984" from-port="0" to-layer="2985" to-port="0" />
		<edge from-layer="2985" from-port="1" to-layer="2986" to-port="1" />
		<edge from-layer="2986" from-port="2" to-layer="2989" to-port="0" />
		<edge from-layer="2987" from-port="0" to-layer="2988" to-port="0" />
		<edge from-layer="2988" from-port="1" to-layer="2989" to-port="1" />
		<edge from-layer="2989" from-port="2" to-layer="2992" to-port="0" />
		<edge from-layer="2990" from-port="0" to-layer="2991" to-port="0" />
		<edge from-layer="2991" from-port="1" to-layer="2992" to-port="1" />
		<edge from-layer="2992" from-port="2" to-layer="2993" to-port="4" />
		<edge from-layer="2993" from-port="5" to-layer="2996" to-port="0" />
		<edge from-layer="2994" from-port="0" to-layer="2995" to-port="0" />
		<edge from-layer="2995" from-port="1" to-layer="2996" to-port="1" />
		<edge from-layer="2996" from-port="2" to-layer="2999" to-port="0" />
		<edge from-layer="2997" from-port="0" to-layer="2998" to-port="0" />
		<edge from-layer="2998" from-port="1" to-layer="2999" to-port="1" />
		<edge from-layer="2999" from-port="2" to-layer="3000" to-port="0" />
		<edge from-layer="3000" from-port="2" to-layer="3010" to-port="0" />
		<edge from-layer="3000" from-port="2" to-layer="3030" to-port="0" />
		<edge from-layer="3000" from-port="2" to-layer="3047" to-port="1" />
		<edge from-layer="3000" from-port="2" to-layer="3003" to-port="0" />
		<edge from-layer="3000" from-port="2" to-layer="3040" to-port="0" />
		<edge from-layer="3000" from-port="2" to-layer="3020" to-port="0" />
		<edge from-layer="3001" from-port="0" to-layer="3002" to-port="0" />
		<edge from-layer="3002" from-port="1" to-layer="3003" to-port="1" />
		<edge from-layer="3003" from-port="2" to-layer="3006" to-port="0" />
		<edge from-layer="3004" from-port="0" to-layer="3005" to-port="0" />
		<edge from-layer="3005" from-port="1" to-layer="3006" to-port="1" />
		<edge from-layer="3006" from-port="2" to-layer="3009" to-port="0" />
		<edge from-layer="3007" from-port="0" to-layer="3008" to-port="0" />
		<edge from-layer="3008" from-port="1" to-layer="3009" to-port="1" />
		<edge from-layer="3009" from-port="2" to-layer="3040" to-port="1" />
		<edge from-layer="3009" from-port="2" to-layer="3020" to-port="1" />
		<edge from-layer="3009" from-port="2" to-layer="3030" to-port="1" />
		<edge from-layer="3009" from-port="2" to-layer="3010" to-port="1" />
		<edge from-layer="3010" from-port="2" to-layer="3013" to-port="0" />
		<edge from-layer="3011" from-port="0" to-layer="3012" to-port="0" />
		<edge from-layer="3012" from-port="1" to-layer="3013" to-port="1" />
		<edge from-layer="3013" from-port="2" to-layer="3016" to-port="0" />
		<edge from-layer="3014" from-port="0" to-layer="3015" to-port="0" />
		<edge from-layer="3015" from-port="1" to-layer="3016" to-port="1" />
		<edge from-layer="3016" from-port="2" to-layer="3019" to-port="0" />
		<edge from-layer="3017" from-port="0" to-layer="3018" to-port="0" />
		<edge from-layer="3018" from-port="1" to-layer="3019" to-port="1" />
		<edge from-layer="3019" from-port="2" to-layer="3040" to-port="2" />
		<edge from-layer="3019" from-port="2" to-layer="3020" to-port="2" />
		<edge from-layer="3019" from-port="2" to-layer="3030" to-port="2" />
		<edge from-layer="3020" from-port="3" to-layer="3023" to-port="0" />
		<edge from-layer="3021" from-port="0" to-layer="3022" to-port="0" />
		<edge from-layer="3022" from-port="1" to-layer="3023" to-port="1" />
		<edge from-layer="3023" from-port="2" to-layer="3026" to-port="0" />
		<edge from-layer="3024" from-port="0" to-layer="3025" to-port="0" />
		<edge from-layer="3025" from-port="1" to-layer="3026" to-port="1" />
		<edge from-layer="3026" from-port="2" to-layer="3029" to-port="0" />
		<edge from-layer="3027" from-port="0" to-layer="3028" to-port="0" />
		<edge from-layer="3028" from-port="1" to-layer="3029" to-port="1" />
		<edge from-layer="3029" from-port="2" to-layer="3040" to-port="3" />
		<edge from-layer="3029" from-port="2" to-layer="3030" to-port="3" />
		<edge from-layer="3030" from-port="4" to-layer="3033" to-port="0" />
		<edge from-layer="3031" from-port="0" to-layer="3032" to-port="0" />
		<edge from-layer="3032" from-port="1" to-layer="3033" to-port="1" />
		<edge from-layer="3033" from-port="2" to-layer="3036" to-port="0" />
		<edge from-layer="3034" from-port="0" to-layer="3035" to-port="0" />
		<edge from-layer="3035" from-port="1" to-layer="3036" to-port="1" />
		<edge from-layer="3036" from-port="2" to-layer="3039" to-port="0" />
		<edge from-layer="3037" from-port="0" to-layer="3038" to-port="0" />
		<edge from-layer="3038" from-port="1" to-layer="3039" to-port="1" />
		<edge from-layer="3039" from-port="2" to-layer="3040" to-port="4" />
		<edge from-layer="3040" from-port="5" to-layer="3043" to-port="0" />
		<edge from-layer="3041" from-port="0" to-layer="3042" to-port="0" />
		<edge from-layer="3042" from-port="1" to-layer="3043" to-port="1" />
		<edge from-layer="3043" from-port="2" to-layer="3046" to-port="0" />
		<edge from-layer="3044" from-port="0" to-layer="3045" to-port="0" />
		<edge from-layer="3045" from-port="1" to-layer="3046" to-port="1" />
		<edge from-layer="3046" from-port="2" to-layer="3047" to-port="0" />
		<edge from-layer="3047" from-port="2" to-layer="3050" to-port="0" />
		<edge from-layer="3048" from-port="0" to-layer="3049" to-port="0" />
		<edge from-layer="3049" from-port="1" to-layer="3050" to-port="1" />
		<edge from-layer="3050" from-port="2" to-layer="3051" to-port="0" />
		<edge from-layer="3051" from-port="2" to-layer="3091" to-port="0" />
		<edge from-layer="3051" from-port="2" to-layer="3098" to-port="1" />
		<edge from-layer="3051" from-port="2" to-layer="3081" to-port="0" />
		<edge from-layer="3051" from-port="2" to-layer="3196" to-port="1" />
		<edge from-layer="3051" from-port="2" to-layer="3071" to-port="0" />
		<edge from-layer="3051" from-port="2" to-layer="3061" to-port="0" />
		<edge from-layer="3051" from-port="2" to-layer="3054" to-port="0" />
		<edge from-layer="3052" from-port="0" to-layer="3053" to-port="0" />
		<edge from-layer="3053" from-port="1" to-layer="3054" to-port="1" />
		<edge from-layer="3054" from-port="2" to-layer="3057" to-port="0" />
		<edge from-layer="3055" from-port="0" to-layer="3056" to-port="0" />
		<edge from-layer="3056" from-port="1" to-layer="3057" to-port="1" />
		<edge from-layer="3057" from-port="2" to-layer="3060" to-port="0" />
		<edge from-layer="3058" from-port="0" to-layer="3059" to-port="0" />
		<edge from-layer="3059" from-port="1" to-layer="3060" to-port="1" />
		<edge from-layer="3060" from-port="2" to-layer="3081" to-port="1" />
		<edge from-layer="3060" from-port="2" to-layer="3091" to-port="1" />
		<edge from-layer="3060" from-port="2" to-layer="3061" to-port="1" />
		<edge from-layer="3060" from-port="2" to-layer="3071" to-port="1" />
		<edge from-layer="3061" from-port="2" to-layer="3064" to-port="0" />
		<edge from-layer="3062" from-port="0" to-layer="3063" to-port="0" />
		<edge from-layer="3063" from-port="1" to-layer="3064" to-port="1" />
		<edge from-layer="3064" from-port="2" to-layer="3067" to-port="0" />
		<edge from-layer="3065" from-port="0" to-layer="3066" to-port="0" />
		<edge from-layer="3066" from-port="1" to-layer="3067" to-port="1" />
		<edge from-layer="3067" from-port="2" to-layer="3070" to-port="0" />
		<edge from-layer="3068" from-port="0" to-layer="3069" to-port="0" />
		<edge from-layer="3069" from-port="1" to-layer="3070" to-port="1" />
		<edge from-layer="3070" from-port="2" to-layer="3071" to-port="2" />
		<edge from-layer="3070" from-port="2" to-layer="3091" to-port="2" />
		<edge from-layer="3070" from-port="2" to-layer="3081" to-port="2" />
		<edge from-layer="3071" from-port="3" to-layer="3074" to-port="0" />
		<edge from-layer="3072" from-port="0" to-layer="3073" to-port="0" />
		<edge from-layer="3073" from-port="1" to-layer="3074" to-port="1" />
		<edge from-layer="3074" from-port="2" to-layer="3077" to-port="0" />
		<edge from-layer="3075" from-port="0" to-layer="3076" to-port="0" />
		<edge from-layer="3076" from-port="1" to-layer="3077" to-port="1" />
		<edge from-layer="3077" from-port="2" to-layer="3080" to-port="0" />
		<edge from-layer="3078" from-port="0" to-layer="3079" to-port="0" />
		<edge from-layer="3079" from-port="1" to-layer="3080" to-port="1" />
		<edge from-layer="3080" from-port="2" to-layer="3091" to-port="3" />
		<edge from-layer="3080" from-port="2" to-layer="3081" to-port="3" />
		<edge from-layer="3081" from-port="4" to-layer="3084" to-port="0" />
		<edge from-layer="3082" from-port="0" to-layer="3083" to-port="0" />
		<edge from-layer="3083" from-port="1" to-layer="3084" to-port="1" />
		<edge from-layer="3084" from-port="2" to-layer="3087" to-port="0" />
		<edge from-layer="3085" from-port="0" to-layer="3086" to-port="0" />
		<edge from-layer="3086" from-port="1" to-layer="3087" to-port="1" />
		<edge from-layer="3087" from-port="2" to-layer="3090" to-port="0" />
		<edge from-layer="3088" from-port="0" to-layer="3089" to-port="0" />
		<edge from-layer="3089" from-port="1" to-layer="3090" to-port="1" />
		<edge from-layer="3090" from-port="2" to-layer="3091" to-port="4" />
		<edge from-layer="3091" from-port="5" to-layer="3094" to-port="0" />
		<edge from-layer="3092" from-port="0" to-layer="3093" to-port="0" />
		<edge from-layer="3093" from-port="1" to-layer="3094" to-port="1" />
		<edge from-layer="3094" from-port="2" to-layer="3097" to-port="0" />
		<edge from-layer="3095" from-port="0" to-layer="3096" to-port="0" />
		<edge from-layer="3096" from-port="1" to-layer="3097" to-port="1" />
		<edge from-layer="3097" from-port="2" to-layer="3098" to-port="0" />
		<edge from-layer="3098" from-port="2" to-layer="3145" to-port="1" />
		<edge from-layer="3098" from-port="2" to-layer="3138" to-port="0" />
		<edge from-layer="3098" from-port="2" to-layer="3128" to-port="0" />
		<edge from-layer="3098" from-port="2" to-layer="3118" to-port="0" />
		<edge from-layer="3098" from-port="2" to-layer="3108" to-port="0" />
		<edge from-layer="3098" from-port="2" to-layer="3101" to-port="0" />
		<edge from-layer="3099" from-port="0" to-layer="3100" to-port="0" />
		<edge from-layer="3100" from-port="1" to-layer="3101" to-port="1" />
		<edge from-layer="3101" from-port="2" to-layer="3104" to-port="0" />
		<edge from-layer="3102" from-port="0" to-layer="3103" to-port="0" />
		<edge from-layer="3103" from-port="1" to-layer="3104" to-port="1" />
		<edge from-layer="3104" from-port="2" to-layer="3107" to-port="0" />
		<edge from-layer="3105" from-port="0" to-layer="3106" to-port="0" />
		<edge from-layer="3106" from-port="1" to-layer="3107" to-port="1" />
		<edge from-layer="3107" from-port="2" to-layer="3118" to-port="1" />
		<edge from-layer="3107" from-port="2" to-layer="3128" to-port="1" />
		<edge from-layer="3107" from-port="2" to-layer="3138" to-port="1" />
		<edge from-layer="3107" from-port="2" to-layer="3108" to-port="1" />
		<edge from-layer="3108" from-port="2" to-layer="3111" to-port="0" />
		<edge from-layer="3109" from-port="0" to-layer="3110" to-port="0" />
		<edge from-layer="3110" from-port="1" to-layer="3111" to-port="1" />
		<edge from-layer="3111" from-port="2" to-layer="3114" to-port="0" />
		<edge from-layer="3112" from-port="0" to-layer="3113" to-port="0" />
		<edge from-layer="3113" from-port="1" to-layer="3114" to-port="1" />
		<edge from-layer="3114" from-port="2" to-layer="3117" to-port="0" />
		<edge from-layer="3115" from-port="0" to-layer="3116" to-port="0" />
		<edge from-layer="3116" from-port="1" to-layer="3117" to-port="1" />
		<edge from-layer="3117" from-port="2" to-layer="3118" to-port="2" />
		<edge from-layer="3117" from-port="2" to-layer="3138" to-port="2" />
		<edge from-layer="3117" from-port="2" to-layer="3128" to-port="2" />
		<edge from-layer="3118" from-port="3" to-layer="3121" to-port="0" />
		<edge from-layer="3119" from-port="0" to-layer="3120" to-port="0" />
		<edge from-layer="3120" from-port="1" to-layer="3121" to-port="1" />
		<edge from-layer="3121" from-port="2" to-layer="3124" to-port="0" />
		<edge from-layer="3122" from-port="0" to-layer="3123" to-port="0" />
		<edge from-layer="3123" from-port="1" to-layer="3124" to-port="1" />
		<edge from-layer="3124" from-port="2" to-layer="3127" to-port="0" />
		<edge from-layer="3125" from-port="0" to-layer="3126" to-port="0" />
		<edge from-layer="3126" from-port="1" to-layer="3127" to-port="1" />
		<edge from-layer="3127" from-port="2" to-layer="3128" to-port="3" />
		<edge from-layer="3127" from-port="2" to-layer="3138" to-port="3" />
		<edge from-layer="3128" from-port="4" to-layer="3131" to-port="0" />
		<edge from-layer="3129" from-port="0" to-layer="3130" to-port="0" />
		<edge from-layer="3130" from-port="1" to-layer="3131" to-port="1" />
		<edge from-layer="3131" from-port="2" to-layer="3134" to-port="0" />
		<edge from-layer="3132" from-port="0" to-layer="3133" to-port="0" />
		<edge from-layer="3133" from-port="1" to-layer="3134" to-port="1" />
		<edge from-layer="3134" from-port="2" to-layer="3137" to-port="0" />
		<edge from-layer="3135" from-port="0" to-layer="3136" to-port="0" />
		<edge from-layer="3136" from-port="1" to-layer="3137" to-port="1" />
		<edge from-layer="3137" from-port="2" to-layer="3138" to-port="4" />
		<edge from-layer="3138" from-port="5" to-layer="3141" to-port="0" />
		<edge from-layer="3139" from-port="0" to-layer="3140" to-port="0" />
		<edge from-layer="3140" from-port="1" to-layer="3141" to-port="1" />
		<edge from-layer="3141" from-port="2" to-layer="3144" to-port="0" />
		<edge from-layer="3142" from-port="0" to-layer="3143" to-port="0" />
		<edge from-layer="3143" from-port="1" to-layer="3144" to-port="1" />
		<edge from-layer="3144" from-port="2" to-layer="3145" to-port="0" />
		<edge from-layer="3145" from-port="2" to-layer="3192" to-port="1" />
		<edge from-layer="3145" from-port="2" to-layer="3185" to-port="0" />
		<edge from-layer="3145" from-port="2" to-layer="3175" to-port="0" />
		<edge from-layer="3145" from-port="2" to-layer="3165" to-port="0" />
		<edge from-layer="3145" from-port="2" to-layer="3155" to-port="0" />
		<edge from-layer="3145" from-port="2" to-layer="3148" to-port="0" />
		<edge from-layer="3146" from-port="0" to-layer="3147" to-port="0" />
		<edge from-layer="3147" from-port="1" to-layer="3148" to-port="1" />
		<edge from-layer="3148" from-port="2" to-layer="3151" to-port="0" />
		<edge from-layer="3149" from-port="0" to-layer="3150" to-port="0" />
		<edge from-layer="3150" from-port="1" to-layer="3151" to-port="1" />
		<edge from-layer="3151" from-port="2" to-layer="3154" to-port="0" />
		<edge from-layer="3152" from-port="0" to-layer="3153" to-port="0" />
		<edge from-layer="3153" from-port="1" to-layer="3154" to-port="1" />
		<edge from-layer="3154" from-port="2" to-layer="3155" to-port="1" />
		<edge from-layer="3154" from-port="2" to-layer="3165" to-port="1" />
		<edge from-layer="3154" from-port="2" to-layer="3185" to-port="1" />
		<edge from-layer="3154" from-port="2" to-layer="3175" to-port="1" />
		<edge from-layer="3155" from-port="2" to-layer="3158" to-port="0" />
		<edge from-layer="3156" from-port="0" to-layer="3157" to-port="0" />
		<edge from-layer="3157" from-port="1" to-layer="3158" to-port="1" />
		<edge from-layer="3158" from-port="2" to-layer="3161" to-port="0" />
		<edge from-layer="3159" from-port="0" to-layer="3160" to-port="0" />
		<edge from-layer="3160" from-port="1" to-layer="3161" to-port="1" />
		<edge from-layer="3161" from-port="2" to-layer="3164" to-port="0" />
		<edge from-layer="3162" from-port="0" to-layer="3163" to-port="0" />
		<edge from-layer="3163" from-port="1" to-layer="3164" to-port="1" />
		<edge from-layer="3164" from-port="2" to-layer="3175" to-port="2" />
		<edge from-layer="3164" from-port="2" to-layer="3185" to-port="2" />
		<edge from-layer="3164" from-port="2" to-layer="3165" to-port="2" />
		<edge from-layer="3165" from-port="3" to-layer="3168" to-port="0" />
		<edge from-layer="3166" from-port="0" to-layer="3167" to-port="0" />
		<edge from-layer="3167" from-port="1" to-layer="3168" to-port="1" />
		<edge from-layer="3168" from-port="2" to-layer="3171" to-port="0" />
		<edge from-layer="3169" from-port="0" to-layer="3170" to-port="0" />
		<edge from-layer="3170" from-port="1" to-layer="3171" to-port="1" />
		<edge from-layer="3171" from-port="2" to-layer="3174" to-port="0" />
		<edge from-layer="3172" from-port="0" to-layer="3173" to-port="0" />
		<edge from-layer="3173" from-port="1" to-layer="3174" to-port="1" />
		<edge from-layer="3174" from-port="2" to-layer="3185" to-port="3" />
		<edge from-layer="3174" from-port="2" to-layer="3175" to-port="3" />
		<edge from-layer="3175" from-port="4" to-layer="3178" to-port="0" />
		<edge from-layer="3176" from-port="0" to-layer="3177" to-port="0" />
		<edge from-layer="3177" from-port="1" to-layer="3178" to-port="1" />
		<edge from-layer="3178" from-port="2" to-layer="3181" to-port="0" />
		<edge from-layer="3179" from-port="0" to-layer="3180" to-port="0" />
		<edge from-layer="3180" from-port="1" to-layer="3181" to-port="1" />
		<edge from-layer="3181" from-port="2" to-layer="3184" to-port="0" />
		<edge from-layer="3182" from-port="0" to-layer="3183" to-port="0" />
		<edge from-layer="3183" from-port="1" to-layer="3184" to-port="1" />
		<edge from-layer="3184" from-port="2" to-layer="3185" to-port="4" />
		<edge from-layer="3185" from-port="5" to-layer="3188" to-port="0" />
		<edge from-layer="3186" from-port="0" to-layer="3187" to-port="0" />
		<edge from-layer="3187" from-port="1" to-layer="3188" to-port="1" />
		<edge from-layer="3188" from-port="2" to-layer="3191" to-port="0" />
		<edge from-layer="3189" from-port="0" to-layer="3190" to-port="0" />
		<edge from-layer="3190" from-port="1" to-layer="3191" to-port="1" />
		<edge from-layer="3191" from-port="2" to-layer="3192" to-port="0" />
		<edge from-layer="3192" from-port="2" to-layer="3195" to-port="0" />
		<edge from-layer="3193" from-port="0" to-layer="3194" to-port="0" />
		<edge from-layer="3194" from-port="1" to-layer="3195" to-port="1" />
		<edge from-layer="3195" from-port="2" to-layer="3196" to-port="0" />
		<edge from-layer="3196" from-port="2" to-layer="3236" to-port="0" />
		<edge from-layer="3196" from-port="2" to-layer="3243" to-port="1" />
		<edge from-layer="3196" from-port="2" to-layer="3341" to-port="1" />
		<edge from-layer="3196" from-port="2" to-layer="3226" to-port="0" />
		<edge from-layer="3196" from-port="2" to-layer="3216" to-port="0" />
		<edge from-layer="3196" from-port="2" to-layer="3206" to-port="0" />
		<edge from-layer="3196" from-port="2" to-layer="3199" to-port="0" />
		<edge from-layer="3197" from-port="0" to-layer="3198" to-port="0" />
		<edge from-layer="3198" from-port="1" to-layer="3199" to-port="1" />
		<edge from-layer="3199" from-port="2" to-layer="3202" to-port="0" />
		<edge from-layer="3200" from-port="0" to-layer="3201" to-port="0" />
		<edge from-layer="3201" from-port="1" to-layer="3202" to-port="1" />
		<edge from-layer="3202" from-port="2" to-layer="3205" to-port="0" />
		<edge from-layer="3203" from-port="0" to-layer="3204" to-port="0" />
		<edge from-layer="3204" from-port="1" to-layer="3205" to-port="1" />
		<edge from-layer="3205" from-port="2" to-layer="3226" to-port="1" />
		<edge from-layer="3205" from-port="2" to-layer="3236" to-port="1" />
		<edge from-layer="3205" from-port="2" to-layer="3206" to-port="1" />
		<edge from-layer="3205" from-port="2" to-layer="3216" to-port="1" />
		<edge from-layer="3206" from-port="2" to-layer="3209" to-port="0" />
		<edge from-layer="3207" from-port="0" to-layer="3208" to-port="0" />
		<edge from-layer="3208" from-port="1" to-layer="3209" to-port="1" />
		<edge from-layer="3209" from-port="2" to-layer="3212" to-port="0" />
		<edge from-layer="3210" from-port="0" to-layer="3211" to-port="0" />
		<edge from-layer="3211" from-port="1" to-layer="3212" to-port="1" />
		<edge from-layer="3212" from-port="2" to-layer="3215" to-port="0" />
		<edge from-layer="3213" from-port="0" to-layer="3214" to-port="0" />
		<edge from-layer="3214" from-port="1" to-layer="3215" to-port="1" />
		<edge from-layer="3215" from-port="2" to-layer="3216" to-port="2" />
		<edge from-layer="3215" from-port="2" to-layer="3236" to-port="2" />
		<edge from-layer="3215" from-port="2" to-layer="3226" to-port="2" />
		<edge from-layer="3216" from-port="3" to-layer="3219" to-port="0" />
		<edge from-layer="3217" from-port="0" to-layer="3218" to-port="0" />
		<edge from-layer="3218" from-port="1" to-layer="3219" to-port="1" />
		<edge from-layer="3219" from-port="2" to-layer="3222" to-port="0" />
		<edge from-layer="3220" from-port="0" to-layer="3221" to-port="0" />
		<edge from-layer="3221" from-port="1" to-layer="3222" to-port="1" />
		<edge from-layer="3222" from-port="2" to-layer="3225" to-port="0" />
		<edge from-layer="3223" from-port="0" to-layer="3224" to-port="0" />
		<edge from-layer="3224" from-port="1" to-layer="3225" to-port="1" />
		<edge from-layer="3225" from-port="2" to-layer="3226" to-port="3" />
		<edge from-layer="3225" from-port="2" to-layer="3236" to-port="3" />
		<edge from-layer="3226" from-port="4" to-layer="3229" to-port="0" />
		<edge from-layer="3227" from-port="0" to-layer="3228" to-port="0" />
		<edge from-layer="3228" from-port="1" to-layer="3229" to-port="1" />
		<edge from-layer="3229" from-port="2" to-layer="3232" to-port="0" />
		<edge from-layer="3230" from-port="0" to-layer="3231" to-port="0" />
		<edge from-layer="3231" from-port="1" to-layer="3232" to-port="1" />
		<edge from-layer="3232" from-port="2" to-layer="3235" to-port="0" />
		<edge from-layer="3233" from-port="0" to-layer="3234" to-port="0" />
		<edge from-layer="3234" from-port="1" to-layer="3235" to-port="1" />
		<edge from-layer="3235" from-port="2" to-layer="3236" to-port="4" />
		<edge from-layer="3236" from-port="5" to-layer="3239" to-port="0" />
		<edge from-layer="3237" from-port="0" to-layer="3238" to-port="0" />
		<edge from-layer="3238" from-port="1" to-layer="3239" to-port="1" />
		<edge from-layer="3239" from-port="2" to-layer="3242" to-port="0" />
		<edge from-layer="3240" from-port="0" to-layer="3241" to-port="0" />
		<edge from-layer="3241" from-port="1" to-layer="3242" to-port="1" />
		<edge from-layer="3242" from-port="2" to-layer="3243" to-port="0" />
		<edge from-layer="3243" from-port="2" to-layer="3290" to-port="1" />
		<edge from-layer="3243" from-port="2" to-layer="3283" to-port="0" />
		<edge from-layer="3243" from-port="2" to-layer="3273" to-port="0" />
		<edge from-layer="3243" from-port="2" to-layer="3263" to-port="0" />
		<edge from-layer="3243" from-port="2" to-layer="3253" to-port="0" />
		<edge from-layer="3243" from-port="2" to-layer="3246" to-port="0" />
		<edge from-layer="3244" from-port="0" to-layer="3245" to-port="0" />
		<edge from-layer="3245" from-port="1" to-layer="3246" to-port="1" />
		<edge from-layer="3246" from-port="2" to-layer="3249" to-port="0" />
		<edge from-layer="3247" from-port="0" to-layer="3248" to-port="0" />
		<edge from-layer="3248" from-port="1" to-layer="3249" to-port="1" />
		<edge from-layer="3249" from-port="2" to-layer="3252" to-port="0" />
		<edge from-layer="3250" from-port="0" to-layer="3251" to-port="0" />
		<edge from-layer="3251" from-port="1" to-layer="3252" to-port="1" />
		<edge from-layer="3252" from-port="2" to-layer="3273" to-port="1" />
		<edge from-layer="3252" from-port="2" to-layer="3253" to-port="1" />
		<edge from-layer="3252" from-port="2" to-layer="3283" to-port="1" />
		<edge from-layer="3252" from-port="2" to-layer="3263" to-port="1" />
		<edge from-layer="3253" from-port="2" to-layer="3256" to-port="0" />
		<edge from-layer="3254" from-port="0" to-layer="3255" to-port="0" />
		<edge from-layer="3255" from-port="1" to-layer="3256" to-port="1" />
		<edge from-layer="3256" from-port="2" to-layer="3259" to-port="0" />
		<edge from-layer="3257" from-port="0" to-layer="3258" to-port="0" />
		<edge from-layer="3258" from-port="1" to-layer="3259" to-port="1" />
		<edge from-layer="3259" from-port="2" to-layer="3262" to-port="0" />
		<edge from-layer="3260" from-port="0" to-layer="3261" to-port="0" />
		<edge from-layer="3261" from-port="1" to-layer="3262" to-port="1" />
		<edge from-layer="3262" from-port="2" to-layer="3263" to-port="2" />
		<edge from-layer="3262" from-port="2" to-layer="3283" to-port="2" />
		<edge from-layer="3262" from-port="2" to-layer="3273" to-port="2" />
		<edge from-layer="3263" from-port="3" to-layer="3266" to-port="0" />
		<edge from-layer="3264" from-port="0" to-layer="3265" to-port="0" />
		<edge from-layer="3265" from-port="1" to-layer="3266" to-port="1" />
		<edge from-layer="3266" from-port="2" to-layer="3269" to-port="0" />
		<edge from-layer="3267" from-port="0" to-layer="3268" to-port="0" />
		<edge from-layer="3268" from-port="1" to-layer="3269" to-port="1" />
		<edge from-layer="3269" from-port="2" to-layer="3272" to-port="0" />
		<edge from-layer="3270" from-port="0" to-layer="3271" to-port="0" />
		<edge from-layer="3271" from-port="1" to-layer="3272" to-port="1" />
		<edge from-layer="3272" from-port="2" to-layer="3273" to-port="3" />
		<edge from-layer="3272" from-port="2" to-layer="3283" to-port="3" />
		<edge from-layer="3273" from-port="4" to-layer="3276" to-port="0" />
		<edge from-layer="3274" from-port="0" to-layer="3275" to-port="0" />
		<edge from-layer="3275" from-port="1" to-layer="3276" to-port="1" />
		<edge from-layer="3276" from-port="2" to-layer="3279" to-port="0" />
		<edge from-layer="3277" from-port="0" to-layer="3278" to-port="0" />
		<edge from-layer="3278" from-port="1" to-layer="3279" to-port="1" />
		<edge from-layer="3279" from-port="2" to-layer="3282" to-port="0" />
		<edge from-layer="3280" from-port="0" to-layer="3281" to-port="0" />
		<edge from-layer="3281" from-port="1" to-layer="3282" to-port="1" />
		<edge from-layer="3282" from-port="2" to-layer="3283" to-port="4" />
		<edge from-layer="3283" from-port="5" to-layer="3286" to-port="0" />
		<edge from-layer="3284" from-port="0" to-layer="3285" to-port="0" />
		<edge from-layer="3285" from-port="1" to-layer="3286" to-port="1" />
		<edge from-layer="3286" from-port="2" to-layer="3289" to-port="0" />
		<edge from-layer="3287" from-port="0" to-layer="3288" to-port="0" />
		<edge from-layer="3288" from-port="1" to-layer="3289" to-port="1" />
		<edge from-layer="3289" from-port="2" to-layer="3290" to-port="0" />
		<edge from-layer="3290" from-port="2" to-layer="3337" to-port="1" />
		<edge from-layer="3290" from-port="2" to-layer="3330" to-port="0" />
		<edge from-layer="3290" from-port="2" to-layer="3320" to-port="0" />
		<edge from-layer="3290" from-port="2" to-layer="3310" to-port="0" />
		<edge from-layer="3290" from-port="2" to-layer="3300" to-port="0" />
		<edge from-layer="3290" from-port="2" to-layer="3293" to-port="0" />
		<edge from-layer="3291" from-port="0" to-layer="3292" to-port="0" />
		<edge from-layer="3292" from-port="1" to-layer="3293" to-port="1" />
		<edge from-layer="3293" from-port="2" to-layer="3296" to-port="0" />
		<edge from-layer="3294" from-port="0" to-layer="3295" to-port="0" />
		<edge from-layer="3295" from-port="1" to-layer="3296" to-port="1" />
		<edge from-layer="3296" from-port="2" to-layer="3299" to-port="0" />
		<edge from-layer="3297" from-port="0" to-layer="3298" to-port="0" />
		<edge from-layer="3298" from-port="1" to-layer="3299" to-port="1" />
		<edge from-layer="3299" from-port="2" to-layer="3300" to-port="1" />
		<edge from-layer="3299" from-port="2" to-layer="3310" to-port="1" />
		<edge from-layer="3299" from-port="2" to-layer="3320" to-port="1" />
		<edge from-layer="3299" from-port="2" to-layer="3330" to-port="1" />
		<edge from-layer="3300" from-port="2" to-layer="3303" to-port="0" />
		<edge from-layer="3301" from-port="0" to-layer="3302" to-port="0" />
		<edge from-layer="3302" from-port="1" to-layer="3303" to-port="1" />
		<edge from-layer="3303" from-port="2" to-layer="3306" to-port="0" />
		<edge from-layer="3304" from-port="0" to-layer="3305" to-port="0" />
		<edge from-layer="3305" from-port="1" to-layer="3306" to-port="1" />
		<edge from-layer="3306" from-port="2" to-layer="3309" to-port="0" />
		<edge from-layer="3307" from-port="0" to-layer="3308" to-port="0" />
		<edge from-layer="3308" from-port="1" to-layer="3309" to-port="1" />
		<edge from-layer="3309" from-port="2" to-layer="3330" to-port="2" />
		<edge from-layer="3309" from-port="2" to-layer="3320" to-port="2" />
		<edge from-layer="3309" from-port="2" to-layer="3310" to-port="2" />
		<edge from-layer="3310" from-port="3" to-layer="3313" to-port="0" />
		<edge from-layer="3311" from-port="0" to-layer="3312" to-port="0" />
		<edge from-layer="3312" from-port="1" to-layer="3313" to-port="1" />
		<edge from-layer="3313" from-port="2" to-layer="3316" to-port="0" />
		<edge from-layer="3314" from-port="0" to-layer="3315" to-port="0" />
		<edge from-layer="3315" from-port="1" to-layer="3316" to-port="1" />
		<edge from-layer="3316" from-port="2" to-layer="3319" to-port="0" />
		<edge from-layer="3317" from-port="0" to-layer="3318" to-port="0" />
		<edge from-layer="3318" from-port="1" to-layer="3319" to-port="1" />
		<edge from-layer="3319" from-port="2" to-layer="3330" to-port="3" />
		<edge from-layer="3319" from-port="2" to-layer="3320" to-port="3" />
		<edge from-layer="3320" from-port="4" to-layer="3323" to-port="0" />
		<edge from-layer="3321" from-port="0" to-layer="3322" to-port="0" />
		<edge from-layer="3322" from-port="1" to-layer="3323" to-port="1" />
		<edge from-layer="3323" from-port="2" to-layer="3326" to-port="0" />
		<edge from-layer="3324" from-port="0" to-layer="3325" to-port="0" />
		<edge from-layer="3325" from-port="1" to-layer="3326" to-port="1" />
		<edge from-layer="3326" from-port="2" to-layer="3329" to-port="0" />
		<edge from-layer="3327" from-port="0" to-layer="3328" to-port="0" />
		<edge from-layer="3328" from-port="1" to-layer="3329" to-port="1" />
		<edge from-layer="3329" from-port="2" to-layer="3330" to-port="4" />
		<edge from-layer="3330" from-port="5" to-layer="3333" to-port="0" />
		<edge from-layer="3331" from-port="0" to-layer="3332" to-port="0" />
		<edge from-layer="3332" from-port="1" to-layer="3333" to-port="1" />
		<edge from-layer="3333" from-port="2" to-layer="3336" to-port="0" />
		<edge from-layer="3334" from-port="0" to-layer="3335" to-port="0" />
		<edge from-layer="3335" from-port="1" to-layer="3336" to-port="1" />
		<edge from-layer="3336" from-port="2" to-layer="3337" to-port="0" />
		<edge from-layer="3337" from-port="2" to-layer="3340" to-port="0" />
		<edge from-layer="3338" from-port="0" to-layer="3339" to-port="0" />
		<edge from-layer="3339" from-port="1" to-layer="3340" to-port="1" />
		<edge from-layer="3340" from-port="2" to-layer="3341" to-port="0" />
		<edge from-layer="3341" from-port="2" to-layer="3344" to-port="0" />
		<edge from-layer="3342" from-port="0" to-layer="3343" to-port="0" />
		<edge from-layer="3343" from-port="1" to-layer="3344" to-port="1" />
		<edge from-layer="3344" from-port="2" to-layer="3347" to-port="0" />
		<edge from-layer="3345" from-port="0" to-layer="3346" to-port="0" />
		<edge from-layer="3346" from-port="1" to-layer="3347" to-port="1" />
		<edge from-layer="3347" from-port="2" to-layer="3348" to-port="1" />
		<edge from-layer="3348" from-port="2" to-layer="3350" to-port="0" />
		<edge from-layer="3349" from-port="0" to-layer="3350" to-port="1" />
		<edge from-layer="3350" from-port="2" to-layer="3353" to-port="0" />
		<edge from-layer="3351" from-port="0" to-layer="3352" to-port="0" />
		<edge from-layer="3352" from-port="1" to-layer="3353" to-port="1" />
		<edge from-layer="3353" from-port="2" to-layer="3356" to-port="0" />
		<edge from-layer="3354" from-port="0" to-layer="3355" to-port="0" />
		<edge from-layer="3355" from-port="1" to-layer="3356" to-port="1" />
		<edge from-layer="3356" from-port="2" to-layer="3359" to-port="0" />
		<edge from-layer="3357" from-port="0" to-layer="3358" to-port="0" />
		<edge from-layer="3358" from-port="1" to-layer="3359" to-port="1" />
		<edge from-layer="3359" from-port="2" to-layer="3361" to-port="0" />
		<edge from-layer="3360" from-port="0" to-layer="3361" to-port="1" />
		<edge from-layer="3361" from-port="2" to-layer="3364" to-port="0" />
		<edge from-layer="3362" from-port="0" to-layer="3363" to-port="0" />
		<edge from-layer="3363" from-port="1" to-layer="3364" to-port="1" />
		<edge from-layer="3364" from-port="2" to-layer="3367" to-port="0" />
		<edge from-layer="3365" from-port="0" to-layer="3366" to-port="0" />
		<edge from-layer="3366" from-port="1" to-layer="3367" to-port="1" />
		<edge from-layer="3367" from-port="2" to-layer="3370" to-port="0" />
		<edge from-layer="3368" from-port="0" to-layer="3369" to-port="0" />
		<edge from-layer="3369" from-port="1" to-layer="3370" to-port="1" />
		<edge from-layer="3370" from-port="2" to-layer="3373" to-port="0" />
		<edge from-layer="3371" from-port="0" to-layer="3372" to-port="0" />
		<edge from-layer="3372" from-port="1" to-layer="3373" to-port="1" />
		<edge from-layer="3373" from-port="2" to-layer="3376" to-port="0" />
		<edge from-layer="3374" from-port="0" to-layer="3375" to-port="0" />
		<edge from-layer="3375" from-port="1" to-layer="3376" to-port="1" />
		<edge from-layer="3376" from-port="2" to-layer="3379" to-port="0" />
		<edge from-layer="3377" from-port="0" to-layer="3378" to-port="0" />
		<edge from-layer="3378" from-port="1" to-layer="3379" to-port="1" />
		<edge from-layer="3379" from-port="2" to-layer="3382" to-port="0" />
		<edge from-layer="3380" from-port="0" to-layer="3381" to-port="0" />
		<edge from-layer="3381" from-port="1" to-layer="3382" to-port="1" />
		<edge from-layer="3382" from-port="2" to-layer="3385" to-port="0" />
		<edge from-layer="3383" from-port="0" to-layer="3384" to-port="0" />
		<edge from-layer="3384" from-port="1" to-layer="3385" to-port="1" />
		<edge from-layer="3385" from-port="2" to-layer="3386" to-port="0" />
	</edges>
	<rt_info>
		<Runtime_version value="2023.3.0-13775-ceeafaf64f3-releases/2023/3" />
		<conversion_parameters>
			<is_python_object value="False" />
		</conversion_parameters>
	</rt_info>
</net>
